saves/best_model_basic.pth (torch, 107255 bytes, 8 tensors)

fc1.weight f4 [128, 6]
000000 23 6c f9 bd 5e 71 db 3e b4 8b ab be 0b 68 c0 3e
       -0.121788286 0.4285993 -0.33505023 0.37579378
000010 cb f4 03 be f6 9a 6c be e4 a0 a6 bd 90 2f 71 bd
       -0.1288635 -0.23105988 -0.08136156 -0.05888325
000020 a4 56 83 bd a8 8c 34 3d d4 66 a4 be f8 52 95 3e
       -0.0641301 0.044079453 -0.32109702 0.29164863
000030 18 b2 ab be 0c e0 7b be 55 2c 5b 3e a1 4d 48 be
       -0.33534312 -0.24597186 0.2140363 -0.19560863
000040 56 b8 ab be 97 e8 93 3e c0 b3 14 3e 46 4f a5 3e
       -0.33539075 0.2888839 0.14521694 0.32287043
000050 c0 2d 3a be 5f 05 44 3c c5 fe 6f be 6d 51 47 3d
       -0.18181515 0.011964171 -0.2343703 0.048661638
000060 86 41 9f 3e d1 6b 27 bd 64 96 b2 3e c3 12 85 be
       0.31104678 -0.040874306 0.34880364 -0.25990877
000070 7c e4 69 3c 8d 08 50 bd 12 71 d7 bd 9c 04 81 3e
       0.014275666 -0.050789405 -0.10519613 0.2519883
000080 82 3b 4e be 6e 67 96 3e e0 15 e5 bd fa c2 af 3d
       -0.20139888 0.29375786 -0.11185813 0.08582111
000090 83 4d 0e 3d 23 8e 10 3d 3f ac 8c 3d 3e 16 4d be
       0.03474189 0.035291802 0.06868791 -0.20028016
0000a0 e5 57 58 3c 99 ae 75 3d 6a 23 b2 be e8 90 7e be
       0.013204549 0.059980962 -0.34792644 -0.24859965
0000b0 95 15 e0 3e 61 8a bb 3e ea 72 e9 3e 39 d2 90 be
       0.43766466 0.36629012 0.45595485 -0.28285387
0000c0 7f d5 af 3d da 30 88 bc cf 62 6c 3e f9 f9 a0 bd
       0.08585643 -0.016624857 0.23084567 -0.078601785
0000d0 1e 3b 60 3e 93 71 13 3e 1b b4 cc be 1f 04 a8 3e
       0.21897551 0.14398794 -0.3998116 0.32815644
0000e0 68 01 d0 be 07 b5 97 be e6 cd b7 be 90 bc 87 3e
       -0.40626073 -0.296303 -0.35899276 0.2651105
0000f0 3e b6 23 3e 85 7b 99 3e 1f 6c f0 bd 00 03 83 3e
       0.15987489 0.2997705 -0.117393725 0.25588226
000100 51 36 35 3e 52 dc a1 3d 3f 91 ab 3e 95 b0 c0 bd
       0.17696501 0.07903351 0.3350925 -0.0940868
000110 ac 22 f6 bd 8c 30 97 be 04 6b ce be f8 d3 81 be
       -0.12018332 -0.29529226 -0.4031602 -0.25357032
000120 a7 15 49 be 4f c9 8c be 2f 50 36 3e b2 3c f7 3e
       -0.19637166 -0.27497336 0.17804025 0.48288494
000130 52 d7 2e 3d a5 31 b4 3e b2 41 38 bd 7f 56 06 bd
       0.042685814 0.35194126 -0.044984527 -0.032797333
000140 cf 48 55 be f1 bc e9 bc 98 18 9b 3d ce de 02 be
       -0.20828556 -0.028532477 0.0757305 -0.12780306
000150 f7 eb 66 3e 7f 57 4a 3e ea 75 92 3e 4b b8 67 be
       0.22550951 0.1975994 0.28605586 -0.22628896
000160 2b 71 b3 3d 5f d9 51 3d d6 47 a7 bd dc b4 ab 3e
       0.087618195 0.05123269 -0.081679985 0.33536422
000170 e3 7f c0 be 5f 78 26 3e 09 40 e0 bd d5 03 95 be
       -0.3759757 0.16256855 -0.10949714 -0.29104486
000180 61 21 6a 3e 32 81 ab 3d fd 30 a1 be 5c e9 9c be
       0.22864296 0.083742514 -0.31482688 -0.3064679
000190 9f 43 73 3e 6e 94 9f be 3b 6f 91 3d a5 36 c1 be
       0.23756264 -0.3116793 0.07101294 -0.37737003
0001a0 77 04 92 be f5 9c 0c bd e4 eb e5 3d 82 d3 88 3d
       -0.2851903 -0.034329373 0.11226633 0.06680967
0001b0 10 97 47 3e 9d c4 f6 bd 4e 5a b6 3e 07 85 92 3e
       0.1949122 -0.1204922 0.35615772 0.28617117
0001c0 c3 68 a8 3e 0a f8 89 3e 9f af fe bd c3 fa a9 3e
       0.32892427 0.2694705 -0.12435841 0.33199129
0001d0 6f f8 46 be d7 e0 ae 3d 05 37 63 be d8 c2 0f be
       -0.19430707 0.085389785 -0.22188957 -0.1403917
0001e0 2b 0b e8 bd c2 98 b5 bd da 9b 9c be 92 5b af 3d
       -0.11330255 -0.08867027 -0.30587655 0.085623875
0001f0 cd 5a 72 bd b9 ff 66 be a5 6d 88 3e 5d c5 11 bd
       -0.059168626 -0.22558488 0.26646152 -0.03558861
000200 1b 25 06 bf 9a 62 f9 bc f7 08 72 be 0e 22 11 3e
       -0.5240037 -0.030442525 -0.23636232 0.14173147
000210 2d 85 4e 3d 92 0d 95 be e3 df bc 3d 98 5d b3 be
       0.050419975 -0.29111916 0.092223905 -0.35032344
000220 22 17 48 be d3 a7 2d 3c 2c d8 8f 3e 47 8d 8b 3e
       -0.19540074 0.010599094 0.28094614 0.27256224
000230 5a a8 e8 be 8c 61 95 3d c3 9b 4d 3e 6e 8b 7a 3e
       -0.45440942 0.07293996 0.2007895 0.2446725
000240 ec 68 cb be 91 99 ab 3e 49 7e ae 3e 29 80 e5 3b
       -0.39728487 0.335156 0.34080723 0.0070038033
000250 5a f7 37 3d df 36 66 3e e8 5b 81 3d c6 5c ae 3e
       0.044913627 0.22481869 0.06316358 0.34055156
000260 34 f1 de be 0a 9d b3 bd 39 9c 4e be 9a 79 bb be
       -0.43543398 -0.08770187 -0.20176782 -0.36616212
000270 4a 9a be bd 88 1e a2 3e 1e 00 47 3e b1 24 18 3e
       -0.09306772 0.31663918 0.19433638 0.14857747
000280 15 39 ff bc a3 f2 6f bd a6 35 92 be 6f 4a 21 3e
       -0.031155149 -0.058581006 -0.28556556 0.1575105
000290 23 95 bc be be dc a6 3e 03 17 bd 3e 49 2b 62 bd
       -0.36832532 0.32590288 0.3693162 -0.05521706
0002a0 a5 9f 49 3e e5 10 39 3d 6c 5b bb 3e 32 36 b5 be
       0.19689806 0.045182128 0.36593187 -0.3539291
0002b0 90 b9 85 3e ed 00 65 be df e2 9d 3e 8a 2c 92 3e
       0.26118135 -0.22363634 0.3083715 0.28549606
0002c0 0c f3 54 3e a6 97 c7 be 71 56 85 bd d6 80 43 be
       0.2079584 -0.38982886 -0.06510628 -0.19092116
0002d0 6f 2d 36 be d3 91 f2 3d 1c ba 54 be 9e 90 9a be
       -0.17790769 0.1184422 -0.2077412 -0.3018846
0002e0 cc a7 ae bc 1a 5f df be d1 9e d1 3e 7e 05 9b be
       -0.021320246 -0.43627244 0.4094148 -0.30277628
0002f0 2c 56 db bb 6d e3 dc be b2 a4 45 be 2e c2 51 be
       -0.006693622 -0.43142262 -0.19301108 -0.2048423
000300 fa ec cd be 21 53 3b be ac 77 70 be d4 c9 0f 3e
       -0.4021986 -0.1829343 -0.23483151 0.14041835
000310 e8 43 bf be 80 78 16 bc 13 74 93 be b6 a6 62 be
       -0.37356496 -0.009184003 -0.28799495 -0.22133908
000320 39 ba 4a be 28 eb f9 3d 40 4b 87 be aa 11 a1 be
       -0.19797601 0.122030556 -0.264246 -0.3145879
000330 ce 08 86 be e5 12 d0 be ac c5 a3 bd 53 8f a1 be
       -0.26178592 -0.40639415 -0.07996687 -0.3155466
000340 79 e2 81 be 10 89 02 3e be 8a 8a 3e c5 40 d4 be
       -0.25368097 0.12747598 0.27058977 -0.41455665
000350 30 b0 c4 bc e9 f7 b6 3e 7a 4e 7f be ce 00 88 be
       -0.024009794 0.35736015 -0.2493228 -0.26563114
000360 5c 50 d6 3d 84 fb 35 3e 05 e6 2c 3d 44 f4 e0 be
       0.10464546 0.17771727 0.04221155 -0.4393636
000370 8f 4a b6 3e b1 14 7c be 74 a4 6f bd 12 01 d8 bd
       0.3560376 -0.24617268 -0.058506444 -0.10547079
000380 54 17 02 3f e3 11 1f 3e 7e f1 1a 3e 27 84 b2 3e
       0.50816846 0.15534167 0.15131184 0.3486645
000390 c1 01 e7 be 0a 3e 31 3e 48 08 c9 3e 73 9a ab 3e
       -0.45118526 0.17308822 0.3926413 0.33516273
0003a0 11 cf 8f 3e 67 2f a2 be 5e a6 cb 3d cc ec 6c bc
       0.28087667 -0.3167679 0.099438414 -0.014460754
0003b0 c1 a5 ba 3e 33 bd f1 bd 06 58 52 be 6b ea 04 3e
       0.36454585 -0.11803665 -0.20541391 0.12980048
0003c0 ba ce 87 be ec 1e b9 be e0 b1 09 3e ee 26 bd be
       -0.26524907 -0.36156404 0.1344676 -0.36943763
0003d0 11 58 97 be 60 4a cc be 62 17 46 3e 92 26 2c bc
       -0.29559377 -0.39900494 0.19344857 -0.010507243
0003e0 8f c7 ae be 6d 49 57 3e 01 34 90 be c8 02 55 be
       -0.34136626 0.21024103 -0.28164676 -0.20801842
0003f0 4b 9f 5f 3e f2 e7 88 3e 97 67 d5 be 9d da af be
       0.21838109 0.2673946 -0.41680595 -0.34346476

fc1.bias f4 [128]
000000 5b d3 63 be 08 88 6a be 8c 5f a9 3e bf 70 98 bd
       -0.22248594 -0.22903454 0.3308071 -0.074433796
000010 32 13 c0 be 5c f6 32 3e 43 45 42 be 3a bd 9d 3e
       -0.37514645 0.17476791 -0.18971734 0.3080843
000020 ef 6b 52 bc fa eb a8 be 47 6a 9f be db 21 33 be
       -0.012843116 -0.32992536 -0.3113577 -0.17493384
000030 4c 33 23 be 76 98 08 3d f9 8d 8e be d5 32 c1 3e
       -0.15937537 0.033348523 -0.27842692 0.37734094
000040 03 c4 31 3e 08 c3 4b 3d 61 00 77 3e 4a 55 03 3f
       0.17359929 0.049746543 0.24121238 0.51302016
000050 22 0e 54 be a7 84 4e 3e 0d 55 96 bd 26 81 b2 be
       -0.20708516 0.2016779 -0.07340441 -0.34864157
000060 c9 b5 69 be df d5 ca 3c ad 21 b2 3e 6e a1 99 3d
       -0.22823252 0.024760185 0.34791318 0.075014934
000070 15 d6 bd 3e 13 2d cc 3b 56 3b f4 bc 3d f9 2c 3e
       0.37077394 0.006230959 -0.02981345 0.16891952
000080 40 dd b7 3d b5 ed 5e be fe 23 3e be 44 64 8e 3e
       0.08977747 -0.21770366 -0.18568417 0.27810872
000090 10 af 71 3e 02 8d 0e 3e bf 8d 85 bd af a1 8a be
       0.23601937 0.13920978 -0.065211765 -0.2707648
0000a0 88 2d 81 be ed 13 87 3e d8 d3 01 bf 10 58 24 3e
       -0.2523005 0.2638239 -0.5071387 0.16049218
0000b0 85 39 94 be c5 e6 09 be 26 25 a4 be db 87 7d be
       -0.28950134 -0.13466938 -0.32059592 -0.24758856
0000c0 06 bb b5 be 4a f6 9a be fd 61 0d be 38 93 06 bf
       -0.3549425 -0.3026603 -0.13806911 -0.5256839
0000d0 39 dd b7 3e 49 10 3f 3d 62 f1 9c be 07 57 eb be
       0.35910967 0.04664639 -0.3065291 -0.45964834
0000e0 c9 3d 4f be 3e 1e ef be 21 fd 1a be d6 c7 95 3e
       -0.20238413 -0.4670276 -0.15135624 0.29254025
0000f0 82 7e 00 be 44 4d d1 3e 93 2e 67 be f5 b4 28 3e
       -0.12548259 0.40879261 -0.2257636 0.1647528
000100 49 e8 bf 3d 41 1e 3f 3e 7f c2 d5 3e 08 5e 7a be
       0.09370477 0.18663885 0.4174995 -0.24449933
000110 37 26 a1 3d b2 0f 9f 3e fd 4c 67 be 47 58 16 3e
       0.07868617 0.31066662 -0.22587962 0.14682113
000120 4a ae da 3d a2 70 03 be a0 5f 8d 3e 84 62 be be
       0.10677774 -0.12835935 0.2761202 -0.37184536
000130 4f 65 0d 3e b2 38 87 3e b4 2b eb 3d 91 7f 28 3e
       0.13808177 0.26410443 0.11482945 0.16454913
000140 43 31 38 3e 59 2d a3 3e 63 ca 46 be be 38 f6 bd
       0.17987542 0.31870535 -0.19413142 -0.120225415
000150 af 82 c5 be 8f 4c cd 3b a1 c9 dd bd c7 4f 2a 3e
       -0.38576266 0.00626523 -0.10829473 0.16631995
000160 82 9f 44 3e a6 e2 9e 3c 0e 42 c5 3e 6d 45 40 be
       0.19201472 0.019395184 0.38526958 -0.18776484
000170 b3 06 a7 3d c8 cd 93 3e 14 6f c6 be d2 80 14 3e
       0.08155575 0.28867936 -0.3875662 0.14502266
000180 45 54 52 bd 04 d2 45 3e bc c9 c1 be 42 d7 bf be
       -0.051349897 0.19318396 -0.37849224 -0.37468916
000190 4a ee a7 3e c9 8d 3d 3e f7 2f f8 3c 56 b5 e6 bd
       0.32798988 0.18511118 0.030296309 -0.11265056
0001a0 08 61 be 3d 20 68 f4 be 70 8b 86 bd 60 e5 eb 3d
       0.09295851 -0.4773569 -0.06569564 0.11518359
0001b0 f8 35 d0 3d d8 de f9 bc 71 d1 d3 3d 01 cd 78 bc
       0.10166544 -0.030501768 0.10342682 -0.0151855955
0001c0 69 98 c6 3e 8b 7d da be 2b de 86 be 6e ad 5b be
       0.38788155 -0.42673907 -0.26341376 -0.21452877
0001d0 65 c0 38 be 99 a6 14 3d fa 85 6c be d3 df 8b 3e
       -0.18042143 0.036291692 -0.23097983 0.27319202
0001e0 5a 47 bd 3d 99 30 a6 be 75 10 ad be 90 47 f9 3c
       0.09242125 -0.32458952 -0.33801618 0.030429631
0001f0 80 3b 38 3e 54 f3 47 3e 5c 78 5a 3d f3 53 92 3e
       0.17991447 0.19526416 0.05333744 0.28579673

fc2.weight f4 [128, 128]
000000 85 09 12 3d e6 f5 69 3d c5 8d 97 bd 53 b3 d2 bd
       0.03565361 0.057119273 -0.07400087 -0.1028811
000010 5b 9a 19 3d e3 a8 b8 bd 20 cf 80 bd 92 f8 12 3c
       0.03750072 -0.090165876 -0.06289506 0.008970397
000020 e1 00 0e bc 80 47 8b 3d 9d 58 a0 bc 66 e3 c2 bc
       -0.008667202 0.06800747 -0.019573504 -0.023790073
000030 79 d5 04 3e 91 3d 58 bd c2 ec dd b9 be cb 05 be
       0.12972058 -0.05279309 -0.00042328803 -0.13066003
000040 cc 3f be bd 27 94 69 3d 62 11 54 bd 88 56 cd bd
       -0.09289512 0.057026055 -0.05177439 -0.1002627
000050 75 15 c5 bc 81 fe e6 ba c7 49 9e 3d 60 50 df bc
       -0.024058083 -0.0017623455 0.07728916 -0.027260005
000060 33 c1 05 3e 99 c5 96 bd a6 b2 05 bd db 11 91 3d
       0.13061981 -0.073619075 -0.032641076 0.07083484
000070 0e 02 33 bd 35 40 7f bd b3 38 c1 3d 9c 8a 70 bd
       -0.04370313 -0.062317092 0.09434643 -0.05872594
000080 4a 3b 3a 3d 38 04 ae bc 19 a4 9b 3d 7a 73 d1 3c
       0.0454667 -0.021242246 0.075996585 0.025567759
000090 09 ec 29 bd 07 57 63 bd 2c 08 fc 3d 02 96 b2 bd
       -0.041484866 -0.055502918 0.12306246 -0.08720018
0000a0 63 0d a0 3d 75 54 11 bd 09 c6 13 3d f6 d3 67 3b
       0.07815053 -0.035480935 0.036077533 0.0035374141
0000b0 40 cc c7 3c 0e d1 80 3d 5d f0 89 3d bd 76 09 3e
       0.024389386 0.06289874 0.06735299 0.13424201
0000c0 87 38 f1 3c 89 69 39 3d ce b0 3f bd 02 b1 51 bd
       0.0294459 0.04526666 -0.046799473 -0.0511942
0000d0 f4 82 70 3d b3 c9 10 3d 4f e1 8c 3d 2d f1 e3 bc
       0.058718637 0.035348605 0.06878912 -0.027824963
0000e0 da 9c 62 3d 96 f2 63 bc cd 47 5d 3d d1 e9 ed bc
       0.055325367 -0.013912817 0.054023553 -0.029042156
0000f0 fd 7b 62 bd e2 40 08 3e 85 a5 cb bc 84 51 4d bd
       -0.055294026 0.13306001 -0.0248592 -0.050126567
000100 80 ed b0 bd fc 96 1d bd b4 df e8 3c b8 6c fa 3d
       -0.086390495 -0.038474068 0.028426982 0.12227768
000110 11 72 3f bd d0 5c 4d 3d bd 74 65 bd 59 6f 10 3d
       -0.04673964 0.05013734 -0.056019533 0.03526244
000120 d0 9a 3a bd 5a 09 c0 bb 3f 3a 5f 3d 9c d0 87 3d
       -0.045557797 -0.00586049 0.054498907 0.06631586
000130 d9 f0 d4 3c a1 d1 3a 3c 3d 8f 08 bc 4d e2 56 bd
       0.025993751 0.0114025185 -0.008334932 -0.05246191
000140 ee 84 78 3d a3 84 63 3c 40 50 a8 3d 0a 8c 7b bd
       0.060673647 0.0138866035 0.082184315 -0.06141285
000150 04 30 49 3d 5c 19 eb bc da 85 61 3d 15 51 2a bd
       0.049118057 -0.028698616 0.05505929 -0.041581232
000160 61 42 92 3d 74 88 1a bd 3a 32 df 3d 4d bf 42 3d
       0.07141567 -0.037727788 0.10898252 0.04754572
000170 65 e0 72 3d d8 32 cb 3c ae f0 df bb fb 61 df bb
       0.05929603 0.024804518 -0.006834111 -0.0068171
000180 7a 1a ae ba 04 21 0e bd 4c c8 e7 3d dc 99 5b bd
       -0.0013283037 -0.034699455 0.113175005 -0.05361353
000190 ee 85 55 bd a1 36 a6 3d e1 a5 7d 3d 2b 9c 10 bd
       -0.05212968 0.081158884 0.061925773 -0.035305183
0001a0 a2 c3 4d bd 53 56 25 bd b7 86 85 bd 20 e8 6e 3b
       -0.050235398 -0.04036553 -0.065198354 0.0036454275
0001b0 f8 4b 1a bd 37 9b 38 be fd 4a 33 bd 5b d3 b7 bc
       -0.037670106 -0.1802796 -0.043772686 -0.02243965
0001c0 45 89 fd bc fd 17 86 3d c3 5d 1e 3d f3 05 8c bd
       -0.030949244 0.06547544 0.038663637 -0.06837072
0001d0 f5 89 86 3d ba 5f 14 3d ce aa 97 3d 53 5c 12 bd
       0.06569282 0.036224104 0.07405625 -0.03573258
0001e0 66 68 09 bd 92 07 d7 3d 6c 8a 70 3d ec cf 8d bc
       -0.033546828 0.10499491 0.05872576 -0.017311059
0001f0 00 e5 9c 3c 5c 24 57 bd 3a 8c 66 bd d7 df ac bd
       0.019152164 -0.05252491 -0.056286074 -0.084411316
000200 f9 d0 42 bd 54 f6 48 bd a0 e6 a2 3d 1e b3 f5 bc
       -0.047562573 -0.04906304 0.079541445 -0.029992636
000210 8a 45 4a 3d cc 50 7c bd 06 6b 74 bd 96 a2 33 3e
       0.049382724 -0.06160049 -0.059672378 0.1754249
000220 c4 5a f6 3b a5 01 86 bd ab 66 87 bb d8 48 c3 bd
       0.0075181443 -0.065432824 -0.004132112 -0.09535378
000230 1a 0a b1 3d 4d 4d cd bc ab 47 69 3d 02 7e 0c be
       0.08644505 -0.025061274 0.056953114 -0.13719943
000240 ac dd 70 bd f7 98 6b bd 48 97 81 3d 9c cc d3 bc
       -0.058805153 -0.057518926 0.06327683 -0.025854401
000250 c6 72 27 bd d8 bb b0 bd 40 17 b1 3c b3 1b a4 bc
       -0.04088094 -0.08629578 0.021617532 -0.02003274
000260 2f 50 92 3b 5d 10 e8 3c f5 04 ca 3d 1f 7b 51 3c
       0.004465125 0.028328115 0.09864227 0.012785702
000270 c7 f2 20 bd 98 11 4c bb 4e 17 8b bd 70 89 18 be
       -0.03929403 -0.0031138416 -0.067915544 -0.14896178
000280 78 7a 60 bd 6c 65 d8 bc be a3 48 3d 07 13 fa 3c
       -0.054804295 -0.02641555 0.04898428 0.030526651
000290 83 cd 74 3d fa d4 fb 3c e4 46 3e 3c 2e 06 b4 3d
       0.059766304 0.030741204 0.011613581 0.08790241
0002a0 5d 52 ab bd ae 60 5d bd 82 4b 21 bd 01 cf a5 bc
       -0.08365319 -0.05404728 -0.03937865 -0.020240309
0002b0 d7 31 fa 3c 3e e2 28 bd 68 49 19 bd cc b1 8a bd
       0.030541344 -0.041231386 -0.03742352 -0.06772193
0002c0 d4 b8 8b 3c f7 03 0a 3c 96 3b 07 3c 32 4e 29 bd
       0.017055906 0.008423797 0.0082539525 -0.04133434
0002d0 29 a4 99 bd 7f 08 b1 3c 80 7a af bb e9 41 fa 3d
       -0.07502014 0.021610497 -0.0053551793 0.122196026
0002e0 be b2 02 3c 81 57 10 bd 2e c3 a4 3d 63 96 5b 3d
       0.007977186 -0.0352397 0.0804504 0.053610217
0002f0 c8 1d f1 bc 3e b1 a8 3d 3f 40 03 bd c6 a7 75 be
       -0.029433146 0.08236931 -0.03204369 -0.23989782
000300 b1 83 1b be 42 2d f5 bc 72 64 a3 bb 0f 17 5b bd
       -0.15186955 -0.029928807 -0.0049863392 -0.053488787
000310 51 96 13 be 7a b8 23 3c 49 43 b2 3b 64 a6 e5 3b
       -0.1441281 0.009992713 0.00544015 0.0070083607
000320 06 7d 1f 3e b7 0e 26 3c b1 b5 ce 3c 59 73 d2 3c
       0.15575036 0.010135344 0.025233122 0.025689768
000330 5f ab 59 3e b7 f4 7d 3e 17 cb dd bc 0c 00 9b bd
       0.21256779 0.24800383 -0.02707438 -0.07568368
000340 b0 02 a6 bb 49 4a c1 bc 9a a1 52 3d 84 8c 3a bd
       -0.0050662383 -0.023594992 0.051423647 -0.045544162
000350 d1 38 b3 3d 75 e1 38 3e 89 60 fb bc c0 52 f1 bc
       0.08751071 0.18054755 -0.03068568 -0.029458404
000360 a2 63 93 bc ca 0e 7e 3d 33 03 3b 3c 1c b7 b8 3c
       -0.017991845 0.062025823 0.011414337 0.02254825
000370 ec ba 3e bd cf f5 45 3d 28 44 16 3d 4d e4 c6 3d
       -0.04656498 0.048330124 0.036686093 0.09711514
000380 e2 7d bb 3d dd a4 e1 bd 2d 87 a0 3d e1 db 28 bd
       0.091548696 -0.11017773 0.07838283 -0.041225318
000390 82 af 02 be cd fd fa 3c de b5 a7 bd 6e c2 46 be
       -0.12762263 0.0306386 -0.08188985 -0.19410107
0003a0 24 ad 9c bd 86 25 43 bd 2c 32 d6 bd 7c 21 44 bd
       -0.076502115 -0.047643207 -0.10458788 -0.047883496
0003b0 d2 5c 62 3d d2 53 db bb 6a 6c a9 3d 75 08 05 3c
       0.0552643 -0.006693342 0.082726315 0.008119692
0003c0 70 43 52 bc 01 25 a5 3d 96 90 29 3e 65 00 5d 3c
       -0.012833461 0.080636986 0.16559061 0.013488864
0003d0 a4 16 96 3c 45 3b 66 bd 97 e5 a8 bd 22 db 9a 3d
       0.018321343 -0.056208868 -0.08246916 0.075613275
0003e0 36 39 2f bc 3b 9d 03 3e 36 bd 2c be d6 66 6c 3d
       -0.0106947925 0.12852947 -0.16869053 0.05771526
0003f0 d7 36 91 bb ec 9e 07 be a2 67 04 bd ab 35 dd 3d
       -0.0044315862 -0.13244218 -0.032325394 0.10801252

fc2.bias f4 [128]
000000 db a2 fd 3c e7 b0 e7 3c 4a 9d 7a 3d eb 41 ae bc
       0.030961445 0.028282596 0.06118516 -0.021271667
000010 2c ed af bc ce 58 bd bd 33 b0 30 bd 20 a2 e3 bd
       -0.021475397 -0.09245454 -0.043136787 -0.11114907
000020 20 1d 7c 3c ed 50 24 3d 9c 02 54 3d 32 d7 f9 bc
       0.015387803 0.04011624 0.0517603 -0.030498121
000030 43 0f a3 bd 0d f9 31 bd d6 d8 1a 3c 61 9c f9 3c
       -0.07961895 -0.043450404 0.009451112 0.030470075
000040 e2 5d 9a 3d a9 3a 87 bb aa 71 68 3d 60 2d 52 bd
       0.07537438 -0.004126866 0.056749023 -0.051312804
000050 54 19 e0 bc 49 82 8d bd ca 63 38 bd 50 ca 1b 3c
       -0.027355827 -0.069096155 -0.04501704 0.009508684
000060 69 f2 07 3e f0 4b 13 3e 04 0f d9 bc d5 fa be 3d
       0.13276066 0.14384437 -0.026496418 0.09325186
000070 51 f1 fc bc 5c b9 f4 3c 54 f8 da 3c 8e fd 27 3c
       -0.030876787 0.029873542 0.02672974 0.010253323
000080 35 1d c5 3d b0 97 c5 bc bf 99 49 3d b3 6e aa bd
       0.096247114 -0.024120182 0.04921889 -0.083218955
000090 0d e9 92 bd fa 1f 39 bd ea 8f 33 bd 51 05 a1 bd
       -0.07173357 -0.04519651 -0.04383842 -0.07862342
0000a0 69 19 a1 bd f0 f8 fe bb b7 c7 48 3d 20 f3 b2 bc
       -0.07866175 -0.0077811405 0.049018588 -0.021844447
0000b0 a6 8a c4 bb 40 c4 4b ba 91 33 8f bd 7b 57 a6 3c
       -0.0059979735 -0.0007773079 -0.069922574 0.020305386
0000c0 a2 f3 27 bc 6e d0 bf 3d 8b 94 c9 bc e4 38 9c bd
       -0.010250958 0.09365927 -0.024606964 -0.076280385
0000d0 5e fa 67 3d 64 2c 91 bd 42 3d 19 3d e8 0f 06 3c
       0.056635253 -0.07088545 0.037411936 0.008182503
0000e0 cd 53 ec 3c c2 40 38 3c df 2a 7f 3d c5 af 31 bc
       0.028848553 0.011245908 0.062296744 -0.010845129
0000f0 30 06 d2 3d 2c ed c0 3d 9c 16 ed 3c e0 64 fd 3d
       0.102550864 0.09420237 0.028941445 0.12372756
000100 12 f1 63 bd 67 71 0e 3d e3 dc ea bc 02 cd 44 bd
       -0.055649824 0.034776118 -0.02866978 -0.048047073
000110 b5 8f 79 3d 90 8c 35 3d a0 86 91 3c 3c e9 6f bd
       0.060928065 0.044323504 0.01776439 -0.05857204
000120 5b b7 68 3d 0d 6c 53 bd 04 1b 2d bd 9d 18 79 3b
       0.056815486 -0.051616717 -0.042262092 0.0038009055
000130 08 35 32 3d 34 eb 35 bd 21 17 80 bd 13 2d d5 bd
       0.043507606 -0.04441376 -0.062544115 -0.10408988
000140 c5 8d 28 3d cc d1 77 bd 64 f8 e4 3c 89 1c df 3c
       0.041150827 -0.060502812 0.027950473 0.027235286
000150 bf 3f 82 3d c2 62 17 bd c5 fa 9b bd 11 b0 25 3c
       0.06359815 -0.036959417 -0.0761619 0.010112778
000160 35 57 bb 3c 42 d7 8d 3d b1 f8 87 bd 73 77 41 bd
       0.022868732 0.06925823 -0.06639231 -0.047233056
000170 0b ee a1 bd 30 eb 7f bc aa 4f 1d 3c 95 c8 08 3b
       -0.07906731 -0.015620038 0.009601513 0.002087151
000180 ca 8b 9c bd 62 39 35 bd 87 8c af 3c 75 7c 24 bd
       -0.0764385 -0.044244178 0.021429313 -0.040157754
000190 8b 8a 5f bd 19 1e c7 3b 30 7f 84 3b 7a 13 9d bd
       -0.054575484 0.006076586 0.0040434822 -0.076697305
0001a0 e0 e7 09 bd 71 7e b1 bd 5e 61 d9 bd 10 a0 37 bd
       -0.0336684 -0.08666695 -0.106142744 -0.044830382
0001b0 8c fe 7c 3d c1 7a aa bd 8e 49 42 bd de d3 01 3d
       0.061766192 -0.08324195 -0.04743343 0.031696193
0001c0 de c3 52 3d ef b5 bf bd 54 32 1c 3d 34 6d f9 bb
       0.051456325 -0.09360873 0.038133934 -0.007611895
0001d0 d4 6b 81 3b af c1 b5 bd f4 dd ae bd 88 f4 91 bc
       0.0039496217 -0.08874833 -0.08538428 -0.017816797
0001e0 4b 7d b9 bd 32 ab 13 bd 83 e4 0d 3d 96 2f bb bd
       -0.09057101 -0.036051936 0.034641754 -0.09139936
0001f0 9b 99 68 bd dc d7 57 3d b7 21 dc 3c af 2a 09 be
       -0.056787115 0.052696094 0.026871545 -0.13395189

fc3.weight f4 [64, 128]
000000 a0 c2 db bd 78 ba 72 bd e3 62 50 3c f8 70 53 bd
       -0.10730481 -0.05925986 0.012718889 -0.051621407
000010 fd bc 81 3d d8 46 9f 3c 84 c2 0c 3c 2c 02 75 bb
       0.06334875 0.01944296 0.008591298 -0.0037385328
000020 d5 15 42 3d fa 05 36 3d 4b a5 6a 3d 6b 9c 95 bd
       0.047384102 0.044439293 0.057286542 -0.07305225
000030 9f dd fa bc e2 1b 8b bc 0f 10 2c bc 58 6f 76 3c
       -0.030623255 -0.016981069 -0.010501876 0.015041195
000040 aa 8b a0 3c af 6f 1b bd 0b 02 ad bd 76 4d 0e 3d
       0.019597847 -0.037948307 -0.08447655 0.03474184
000050 df c6 49 3c 2c 96 a9 bc 5c 3f d1 bc 7b a6 66 bd
       0.012315481 -0.02070149 -0.025542907 -0.056311112
000060 27 9b b4 bd 2a 79 da bb 2f 33 af 3d 6d 5a 26 be
       -0.088186555 -0.006667276 0.08554684 -0.16245432
000070 5d 29 9c bd 0f f5 31 bd 08 35 83 bc e0 34 92 bd
       -0.07625077 -0.043446597 -0.016016498 -0.07138991
000080 a6 44 bf bc 5d 53 9d 3d 22 b2 40 3c 96 ab fa bb
       -0.023348164 0.07681916 0.01176122 -0.007649849
000090 90 8f ca 3b 33 5d 8b 3d d7 d0 a8 3b cc 65 97 bd
       0.0061816648 0.06804886 0.005151849 -0.07392463
0000a0 67 22 94 3d a6 8c a1 bd 2b 13 c7 bc a4 f8 2c bd
       0.07233124 -0.07888155 -0.024301132 -0.04222931
0000b0 4d 4f b7 bc 59 52 b0 bd 08 c4 8e bd d8 cc 90 3d
       -0.02237668 -0.086094566 -0.06970984 0.07070321
0000c0 33 3c 9b bd 1a 59 15 3e a1 d1 c6 3d e4 6a ab bd
       -0.075798415 0.14584771 0.09707952 -0.08369997
0000d0 a4 96 c2 bc 10 d9 32 3d fa 6a af 3d d0 77 9f bb
       -0.023753472 0.04366404 0.08565326 -0.0048665777
0000e0 45 78 cf 3b 02 3b dc 3d 16 10 0d 3d fa 50 9e 3c
       0.006331476 0.10753442 0.03443917 0.019325722
0000f0 e9 b4 33 bd 1c 90 5c 3d 09 2f 68 3d a6 7a a3 bd
       -0.0438737 0.05384837 0.05668548 -0.07982378
000100 9c 74 1c 3c 26 d9 5e 3d 60 e4 3d bd 76 7d 7e 3c
       0.009549286 0.054406308 -0.046360373 0.015532842
000110 d1 2d ff 3d 1c c3 06 3e f6 5d 77 3d 0b 8c 50 bd
       0.12459911 0.13160366 0.060392343 -0.050914805
000120 3f ad 42 3d 6a 5b ac bd 34 a4 88 3c 56 ec 1b 3d
       0.0475285 -0.08415873 0.01667986 0.038067184
000130 c5 02 07 3e 19 be af 3d 42 0c 88 bd 73 ee 86 3d
       0.1318465 0.0858118 -0.06642963 0.06588449
000140 9a 83 17 bd 5d 97 b7 3c 00 2b 90 3c 96 f6 0a bd
       -0.03699074 0.022411043 0.017598629 -0.03392657
000150 30 97 39 bd c7 eb ce 3c a1 55 c0 bc 06 5b 99 bd
       -0.0453102 0.025258912 -0.023478331 -0.074880645
000160 a0 6b 3e bd 42 e2 4b bd de 27 3b 3d 95 39 5e bd
       -0.046489358 -0.049776323 0.045692317 -0.054254133
000170 70 96 32 3d dd 1e 6b 3d 90 5c 49 3e 5f 24 ab 3b
       0.0436005 0.05740248 0.19664216 0.0052228416
000180 95 44 90 3d e7 51 53 bb 37 15 5d 3d fa 6c 4f bd
       0.07044331 -0.0032244863 0.05397531 -0.050641038
000190 38 97 d9 3c a5 98 94 3d 8d 8b 72 3d 8a e3 45 3d
       0.026561365 0.07255677 0.059215117 0.0483127
0001a0 70 6e a9 bc 3e 29 56 3d 24 5a 06 3d e4 33 c5 bd
       -0.020682544 0.052285425 0.03280081 -0.09629038
0001b0 00 06 d3 3a 7e bc a5 bd 08 7b 52 3d d8 f9 a8 bd
       0.0016099811 -0.08092593 0.051386863 -0.08250779
0001c0 2f d1 2c 3c d4 0f cb bd be 02 84 bc 57 a5 8c bc
       0.01054792 -0.09915128 -0.016114589 -0.017168684
0001d0 1f 63 84 3c 0a d1 5f bd 58 ce 9d 3d ba 02 66 bd
       0.016160546 -0.054642715 0.077053726 -0.056154944
0001e0 89 58 b2 3d 3c 2e 9f 3d 94 74 e3 bd 0e c2 7e 3c
       0.08708293 0.077724904 -0.1110622 0.015549196
0001f0 14 82 cf 3d b1 63 11 3e 61 ae eb bc 89 10 1f 3d
       0.10132232 0.14198186 -0.028769674 0.03883413
000200 20 ed 49 3d 0b ea f3 3d 14 27 e0 3c 3c 33 ad bd
       0.049298406 0.119098745 0.027362384 -0.08457038
000210 82 e2 80 bd 29 45 ce bc c5 37 22 bb e0 8e a0 bd
       -0.06293203 -0.025179463 -0.002475248 -0.07839751
000220 a0 19 84 bd f0 2a ae 3d 38 c6 5b bd 0a 87 49 3d
       -0.064502 0.085042834 -0.053655833 0.04920105
000230 60 19 f0 bd 1a 4e b1 bd 4e 65 86 3c 8e 0d d7 bc
       -0.1172359 -0.08657475 0.016405728 -0.02625158
000240 c7 e6 2c 3d 04 9b 41 bd 60 72 c4 bd fe 3d fb bb
       0.042212274 -0.047266975 -0.09592128 -0.007667302
000250 b8 05 4c 3d c0 be d5 3a 12 67 85 bd 7c c1 82 bc
       0.04981014 0.0016307458 -0.065138 -0.015961401
000260 b8 36 e2 3b d8 dd 37 3e 44 aa ac bd e4 ca b6 3d
       0.0069034956 0.1795572 -0.08430913 0.08925417
000270 1d 1a cb 3b 1b 7e cb 3d 97 74 8d bd 32 1d e6 bc
       0.0061981813 0.09936162 -0.069070034 -0.028090093
000280 e4 f3 d3 3d 1c 5e f5 3c 44 41 ea 3c 7d 2b b5 3c
       0.10349253 0.029952101 0.028595574 0.022115463
000290 83 69 ae 3d 45 73 3b 3d 00 4a 1e 3d 0e d3 0c 3d
       0.085162185 0.045764226 0.03864479 0.034380965
0002a0 81 cd 04 bd 49 77 af 3d 9c bf 10 bd e3 92 a9 bd
       -0.032422546 0.08567674 -0.035338983 -0.082799695
0002b0 7a ed 62 3d 97 7c 3a bd 08 1d 8a bc fa 19 c8 3c
       0.055402257 -0.045528974 -0.016859546 0.02442645
0002c0 33 8c 6c bd ec 8d 1f bd 42 f7 63 bd 4b 75 8b 3d
       -0.057750892 -0.038953707 -0.055655725 0.06809481
0002d0 e0 e4 3f bb 26 35 83 3d 12 e5 38 3d e6 9c 52 3d
       -0.0029280707 0.06406622 0.045140333 0.05141916
0002e0 48 c0 5d 3d 40 9b d8 bd 10 22 b7 3c 09 d9 0c 3e
       0.05413845 -0.105764866 0.02235511 0.13754667
0002f0 49 94 84 3d 2a 53 fa bc a2 9c 1b ba 09 6b b6 3d
       0.06473596 -0.030557234 -0.0005936121 0.08907134
000300 5c d5 84 bd 1f f8 5c bd 7f 82 eb bc 75 fe 1a 3d
       -0.064860076 -0.053947564 -0.028748749 0.037840325
000310 07 46 27 bd df d0 8a 3d 76 9e 3d 3d f5 cf 8b 3d
       -0.040838268 0.0677812 0.0462937 0.06826774
000320 d7 b8 86 3d 4d 64 73 bd e3 9e 55 3d 8b f9 9d 3d
       0.06578224 -0.059421826 0.05215348 0.07713612
000330 41 ca 12 3d 82 4a 29 3d fa c8 7d bd 79 6e 3f 3d
       0.035837416 0.04133082 -0.061959244 0.046736214
000340 55 80 30 bd 63 db 7a bd 79 a6 97 3d 35 70 29 bd
       -0.043091137 -0.06124438 0.07404799 -0.041366775
000350 98 a6 1b bd ae ac a7 bb a0 87 2a 3d 04 7d 10 bd
       -0.038000673 -0.0051170206 0.04163325 -0.035275474
000360 ff d1 e8 3c 7e d3 47 3d b4 5f b4 3c 08 52 8a 3b
       0.028420446 0.04878568 0.022018291 0.0042212047
000370 8a 68 90 3d ff 0d fd 3b f3 98 0f bd 71 93 60 bd
       0.07051189 0.0077226157 -0.035057973 -0.05482811
000380 1b b1 86 bd 32 e1 19 3d 5e f9 32 bd 98 f7 a2 3c
       -0.06576749 0.03756828 -0.043694846 0.019893453
000390 91 0d 98 3d 32 bf a2 39 ed e8 75 3d ab 08 be bd
       0.074244626 0.000310415 0.06003659 -0.09278997
0003a0 ef 2a 80 bc 29 3d 64 bd d4 3f a8 bd 7b 2d 8e 3d
       -0.015645472 -0.05572239 -0.08215299 0.069422685
0003b0 9a 36 07 3d ca 7e ad 3c 92 39 7a bd 78 47 7a bc
       0.033011056 0.021178622 -0.06109006 -0.015275829
0003c0 83 be 90 bd ad ef 86 3d f0 32 3d 3c e3 16 98 3c
       -0.07067587 0.06588683 0.011547789 0.0185656
0003d0 ab 00 5d 3d fa 31 5a bd a3 10 8b bc 91 d6 9e bd
       0.053955715 -0.053270318 -0.016975706 -0.07755769
0003e0 26 a0 a9 3c a2 44 3f 3b eb 5a b8 3d 60 00 1f 3d
       0.020706248 0.0029185195 0.09001716 0.038818717
0003f0 97 ba 4e bd b7 84 87 bc 70 8c 0b bc 54 81 6e bc
       -0.050470915 -0.016542776 -0.00851737 -0.014557201

fc3.bias f4 [64]
000000 4a 19 4b bd c6 b2 e3 3d b0 c4 27 bc c5 6a ee bd
       -0.049584664 0.11118083 -0.010239765 -0.116414584
000010 ba 80 6f bd 90 0a 87 bd 3a a6 46 3d f1 48 59 bd
       -0.058472373 -0.065938115 0.04849837 -0.053048078
000020 bb 47 08 3d ca fc 8d bd cd ff c2 3b f4 eb b3 3c
       0.033271533 -0.06932981 0.005950904 0.021963097
000030 71 62 5e 3d 4d 51 f4 bb e7 ca a2 bd da 20 be bc
       0.0542931 -0.007455981 -0.07948857 -0.023209024
000040 22 32 2a 3b b4 61 6c bd 0e 25 bb bd 6b 04 c6 bd
       0.0025969823 -0.057710364 -0.09137927 -0.096688114
000050 94 e0 dd bd 84 03 90 3d 95 71 0a 3d 5f 85 3c 3d
       -0.108338505 0.070319206 0.033799727 0.04602563
000060 93 45 c0 bc 46 76 fe bd 5c 05 bc 3c 2f 14 9b bd
       -0.023470676 -0.124249026 0.022951774 -0.07572209
000070 9f ca 28 3c f8 c2 89 3d 5e e8 10 be d6 c2 27 bd
       0.010302215 0.067266405 -0.14151141 -0.040957294
000080 c9 ac 37 3d 5d 43 2c 3d 76 7f 37 bd 66 82 24 bd
       0.044842515 0.04205643 -0.04479929 -0.04016342
000090 ff f3 67 bd 0d d0 08 3b 96 c2 f9 bd 05 88 23 3d
       -0.056629177 0.002087596 -0.121953174 0.03992464
0000a0 bb c2 50 3d 2b 3f 06 bd c2 21 e0 bc f1 c7 8c 3c
       0.05096696 -0.032775085 -0.027359847 0.017185183
0000b0 e6 31 94 3c cb 95 b2 bd 15 7b 4e bc d2 c5 db 3c
       0.0180902 -0.08719977 -0.012602587 0.026827727
0000c0 3b 27 85 3d 61 c2 c5 3c 03 63 4d 3b 79 0a 4a 3d
       0.06501623 0.024140539 0.0031339533 0.049326394
0000d0 50 13 cd bc d4 c3 64 bd 78 25 6a 3c c0 71 18 3d
       -0.025033623 -0.05585082 0.01429116 0.037217855
0000e0 a9 15 b9 bd b0 5c b0 3c 1f 57 35 bd 5c 21 2f 3d
       -0.090373345 0.021528572 -0.04427254 0.042756423
0000f0 f6 6e 70 3d 68 e2 41 3d aa 9b 7f 3d df 0a 11 be
       0.05869957 0.04733506 0.062404312 -0.14164303

fc4.weight f4 [4, 64]
000000 fa 49 c3 3d 63 84 0d be 94 39 48 3d b3 61 34 bd
       0.09535594 -0.13820033 0.048883036 -0.044038486
000010 d8 06 5d bd 60 03 91 3c e8 d0 83 bd e3 0a 07 3e
       -0.053961605 0.017701805 -0.0643633 0.13187747
000020 42 45 9a bc e9 5d 2c be d3 1d ce bc 41 74 95 3d
       -0.018831853 -0.16832699 -0.025160706 0.07297564
000030 a0 77 a5 bd 68 a4 27 3d ca f4 94 bd f6 f5 74 3b
       -0.08079457 0.040928274 -0.07273252 0.003737805
000040 73 48 c6 3c cd f9 18 be 19 8c 03 bd ba 08 bb bd
       0.024204468 -0.14939041 -0.03211603 -0.09132524
000050 87 16 07 be 4f fa c4 bc 2d 5a 45 bd 9b 5a 67 3a
       -0.13192187 -0.024045138 -0.0481817 0.0008825452
000060 9e 35 45 bd b0 74 80 bd c9 10 14 3c c6 fa e9 3b
       -0.048146836 -0.062722564 0.009037205 0.00714049
000070 46 f6 2d 3c 7e 20 54 bd ce 5a 1c be cc 48 ad bc
       0.010617798 -0.0517888 -0.15269014 -0.021152876
000080 b1 9d 0b 3d 5c b2 54 bd b6 63 94 bd ec 70 57 3d
       0.034085933 -0.05192791 -0.07245581 0.052597925
000090 ff 7c 02 bd 00 4f 84 3a 28 9e 2a be 38 54 c8 b8
       -0.031857487 0.0010094345 -0.16661894 -9.55243e-05
0000a0 fd 66 d1 3d e8 72 ac bc 34 e7 1d be 63 7d 04 be
       0.102247216 -0.021050885 -0.15420228 -0.12938456
0000b0 05 ba e0 bd 86 92 80 bd e6 7a 50 bd 2b ed f7 bd
       -0.109729804 -0.06277947 -0.050898455 -0.12105783
0000c0 2f c1 27 3d e5 57 75 be 97 cf b9 3d 08 fd b9 bd
       0.04095572 -0.2395931 0.09072798 -0.09081465
0000d0 4f 43 68 bd 34 c7 9e bd d2 18 91 bd b6 7c e3 bd
       -0.056704815 -0.07752839 -0.07084812 -0.11107771
0000e0 cd 3e e5 bd 30 51 37 3d db 57 cb bc a3 f2 92 3d
       -0.11193619 0.04475516 -0.024822166 0.071751855
0000f0 19 03 0f be 6e 42 ea bc ed 5e ce 3d 43 ba d8 ba
       -0.13966025 -0.02859613 0.100766994 -0.0016535003
000100 96 a0 78 bd 48 09 ab 3c 67 22 a2 bc 83 b6 ad bd
       -0.06070002 0.02087845 -0.019791795 -0.08482077
000110 a1 62 e8 3b f4 6f e7 bd 6e e1 9f bd 68 dc 87 bb
       0.0070918356 -0.1130065 -0.07806669 -0.0041461475
000120 12 7d aa bd 9e 61 f5 3d 93 6f 24 3d 6d 9f e1 bd
       -0.083246365 0.119815096 0.040145468 -0.11016736
000130 ff 99 99 3d fd a1 db 3d 0c 27 a4 bd 20 ce 90 b8
       0.075000755 0.10724256 -0.0801526 -6.904849e-05
000140 ba af 01 be 6a b3 dd 3d bf 6f 41 bd 93 c4 10 bd
       -0.1266469 0.10825236 -0.04722571 -0.035343718
000150 c2 14 d5 bd ae 1a a6 bb 12 f3 07 3d ee d5 2d 3d
       -0.1040435 -0.0050690984 0.033190794 0.042440347
000160 4a 6c 37 bd 3d 7a c3 bd 81 d2 57 bd 62 5e 89 3d
       -0.044781007 -0.095447995 -0.052690987 0.06707455
000170 0d 5a 75 bd bd 08 fc bd 4c df 8b 3d a8 61 34 bd
       -0.059900332 -0.12306354 0.068297 -0.044038445
000180 23 af a9 3d f8 06 99 3d 96 3c d8 bd dc ee b0 3d
       0.08285358 0.07472032 -0.10558431 0.08639309
000190 1e b9 43 bd 1b e5 a9 3d 1c ac 37 be ad 85 84 3c
       -0.047783963 0.082956515 -0.17936748 0.016177023
0001a0 45 3f 3b bc cd 92 d0 bd 63 ca 94 3d 15 0f e8 bd
       -0.011428659 -0.1018425 0.07265165 -0.11331002
0001b0 b7 be c7 bc 9d 90 01 3e 15 1b 38 3e e2 74 37 bd
       -0.024382932 0.12652822 0.17979081 -0.044789203
0001c0 71 90 24 3d a6 2c 28 be d1 c5 ba 3c 6d d2 b6 bd
       0.040176813 -0.16423282 0.022799404 -0.08926854
0001d0 4f 78 55 bd 4e 2e 82 bd b9 e6 aa 3c a8 5e 81 bd
       -0.05211669 -0.06356488 0.02086197 -0.06316882
0001e0 23 79 d9 3d c9 9a 9d 3c b4 e0 90 bd bf 03 c6 bc
       0.10618808 0.019238846 -0.07074109 -0.024171708
0001f0 dc f2 ee bd a2 ee 5f bd 34 27 d2 3d 91 be 6f bc
       -0.116674155 -0.054670937 0.10261384 -0.014632837
000200 59 21 91 3d 0b 52 43 bd c7 39 0f be dd 60 bb bc
       0.07086439 -0.047685664 -0.13986884 -0.022873336
000210 4f c8 1b 3d fc 1d aa 3d 28 e9 1e bd 54 f9 7d bd
       0.038032826 0.083065 -0.038796574 -0.062005356
000220 10 d4 da 3c 14 52 82 bd 9a 73 8e 3c 99 c0 e3 3c
       0.026712447 -0.063633114 0.017389107 0.027801799
000230 b4 8e 18 3e 26 f2 b6 bd ce a2 12 bd 81 ce 8b bd
       0.14898187 -0.08932905 -0.035799794 -0.06826497
000240 76 3c ad 3d ed 14 a9 3d 6a 73 77 bc 19 fa ec bd
       0.08458798 0.082559444 -0.0151032 -0.1157114
000250 76 6d a5 bd 78 9d c2 bd ca c4 33 3e 08 25 36 bd
       -0.08077519 -0.09502691 0.17555538 -0.04446891
000260 e3 65 31 bd ff ab b9 bd f5 ab af bd f9 dd 78 bd
       -0.043310057 -0.09066009 -0.0857772 -0.060758565
000270 0d d4 63 bd fa bb 67 bd ea 27 4a 3e 76 f9 00 be
       -0.05562215 -0.056575753 0.19741789 -0.12595162
000280 ff a2 96 bc 01 1c e0 bd 72 26 c4 3d f1 76 c7 3d
       -0.01838827 -0.10942841 0.09577645 0.09739483
000290 a7 7f e0 bc e9 a9 be 3d 67 b9 35 3e 6f fc 7d 3b
       -0.02740462 0.093097515 0.17746507 0.0038755198
0002a0 12 39 23 bd 25 db 4f 3d b5 7e 03 3e 4c 78 14 be
       -0.03984935 0.050746102 0.12841304 -0.14499015
0002b0 22 7c af bd 94 8e ea bd 8d 37 26 be 51 42 b4 3d
       -0.08568598 -0.11452976 -0.16232128 0.08801711
0002c0 5a 60 82 3d b0 95 b4 3b db 56 3a bd 0e bc ca 3d
       0.06366034 0.005511008 -0.045492988 0.0989915
0002d0 9d cf 87 bd 7d 1d 2d 3d 7a 35 ea bd 70 87 47 3d
       -0.06631396 0.04226445 -0.11435981 0.048713148
0002e0 e9 48 5b 3d ce 8b 3b be 21 2c ef 3c 97 f8 95 bd
       0.05353633 -0.1831505 0.029195847 -0.073228054
0002f0 77 05 14 3e 30 3e 44 3d 41 dd 11 3e a5 92 84 bc
       0.1445521 0.04791087 0.14244558 -0.016183207
000300 7e 0b 07 be 97 51 bb 3d aa da 32 3d e7 f9 23 3d
       -0.13187978 0.091464214 0.043665566 0.040033247
000310 a0 7a a2 ba f4 42 95 3c ae 5c e6 bd 9a 0c d1 bc
       -0.0012396164 0.018220402 -0.11248146 -0.025518704
000320 4e 35 8e 3d dc 59 6a 3d bd 74 1e bd 72 ec 03 be
       0.06943761 0.057214603 -0.03868555 -0.12883165
000330 48 7e 37 be 0f a6 e5 bd 0c b9 a8 bc 10 34 a5 bd
       -0.17919266 -0.11213314 -0.02059605 -0.08066571
000340 f4 9d 16 3e f6 09 4a be be cd 98 3d 46 2a 84 bd
       0.14708692 -0.19730362 0.07461117 -0.064533755
000350 4e 31 9d bd be 48 70 3d b7 18 50 3d bd 4d 6d bd
       -0.0767542 0.058663122 0.05080482 -0.057935465
000360 07 aa 68 3d 66 a4 89 bd 9c 5f d1 bd 83 29 b5 bd
       0.056802776 -0.0672081 -0.10223314 -0.08845808
000370 98 6a 5d 3d 18 76 1a 3e 85 6e 35 bd a1 18 53 3c
       0.054056734 0.15084112 -0.044294853 0.01288429
000380 44 d6 5e bd a3 bc ed bd a3 e0 35 3e cd 86 f9 bd
       -0.05440356 -0.11608245 0.17761473 -0.12183914
000390 c4 1b 2b bc a7 31 ca bc 56 c2 a0 bd 79 06 4a 3a
       -0.010443632 -0.02468188 -0.07849567 0.0007706653
0003a0 29 0a 99 bb c5 2c c3 bd 06 66 fe bd 37 01 dd 3d
       -0.0046704006 -0.095300235 -0.12421803 0.10791247
0003b0 bb 1f 75 bd 08 6e 31 be 04 13 c2 bb 5d e4 d5 bd
       -0.059844714 -0.1732713 -0.005922677 -0.104439475
0003c0 e2 cd e0 bc 92 58 92 bc ec 68 61 3e 62 d5 ec 3d
       -0.027441923 -0.0178645 0.22012681 0.11564137
0003d0 8d 05 4c bd 91 06 b2 3d 11 a8 b9 bd c9 64 24 bd
       -0.04980998 0.08692659 -0.09065259 -0.04013518
0003e0 3e e6 32 be 34 b6 34 3e 45 f4 57 3e 21 a6 aa bd
       -0.17470643 0.1764763 0.21089275 -0.08332468
0003f0 3e 38 b9 bd 81 16 1a be 0d 85 21 3d a9 09 47 3c
       -0.090439305 -0.15047647 0.039433528 0.012148299

fc4.bias f4 [4]
000000 22 07 8d bd 50 ee 00 be 42 e7 c7 3d 90 95 8c bd
       -0.06886126 -0.12590909 0.09760906 -0.06864464
