saves/best_model_time.pth (torch, 107325 bytes, 8 tensors)

fc1.weight f4 [128, 6]
0	0xbd97e99d	-0.07417605
1	0x3ef326cf	0.47490546
2	0xbe990395	-0.29885545
3	0x3eefc3eb	0.4682916
4	0xbd962df1	-0.073329814
5	0xbe24aa5c	-0.16080612
6	0xbda6a0e4	-0.08136156
7	0xbd712f90	-0.05888325
8	0xbd8356a4	-0.0641301
9	0x3d348ca8	0.044079453
10	0xbea466d4	-0.32109702
11	0x3e9552f8	0.29164863
12	0xbe8de7de	-0.27715963
13	0xbe59c8de	-0.21268031
14	0x3e946ea5	0.28990665
15	0xbe43f270	-0.19135451
16	0xbe95537e	-0.29165262
17	0x3eae7b59	0.34078482
18	0x3e4417e1	0.19149734
19	0x3ec8b98d	0.39204064
20	0xbe241c12	-0.16026333
21	0x3ded98d8	0.11601418
22	0xbe40c060	-0.18823385
23	0x3dd8b911	0.105821736
24	0x3e87f884	0.2655679
25	0xbd9f11cc	-0.07767066
26	0x3eab488a	0.3345378
27	0xbe991ae7	-0.29903337
28	0xbc46c7d2	-0.012132602
29	0xbda09a0f	-0.07841884
30	0xbd86f3de	-0.06589483
31	0x3e97b568	0.2963059
32	0xbe641e06	-0.22277078
33	0x3ec8011e	0.39063352
34	0xbce81701	-0.028331282
35	0x3dfca799	0.12336654
36	0x3bd8357e	0.0065981736
37	0xbb5014fa	-0.0031750784
38	0x3dce98c1	0.10087729
39	0xbe7f72a3	-0.24946074
40	0x3d2b8bc2	0.04188133
41	0x3cf8533e	0.03031313
42	0xbecbd7bc	-0.3981303
43	0xbe4cd0a2	-0.20001462
44	0x3ebabbdf	0.3647146
45	0x3ed8ca56	0.4234187
46	0x3efa3459	0.48868063
47	0xbe99a3b6	-0.30007714
48	0x3dabdbc6	0.08391528
49	0xbcf95ec3	-0.030440694
50	0x3e9285c7	0.2861769
51	0xbe12f142	-0.14349845
52	0x3e34f97b	0.17673294
53	0x3e1fc835	0.15603717
54	0xbeccb41b	-0.3998116
55	0x3ea8041f	0.32815644
56	0xbed00168	-0.40626073
57	0xbe97b507	-0.296303
58	0xbeb7cde6	-0.35899276
59	0x3e87bc90	0.2651105
60	0x3e3b9eb6	0.18322262
61	0x3eadfd68	0.33982396
62	0xbe1d8902	-0.15384296
63	0x3ead5d38	0.33860183
64	0x3e350b35	0.17680056
65	0x3e001d6e	0.12511227
66	0x3ebb285f	0.36554238
67	0xbdc28b5d	-0.09499238
68	0xbd7cd3c1	-0.06172538
69	0xbe9cbd20	-0.3061304
70	0xbeadd745	-0.339533
71	0xbe88c6f7	-0.26714298
72	0xbe6366fe	-0.22207257
73	0xbe80b765	-0.2513992
74	0x3df20170	0.118166804
75	0x3f0b0325	0.54301673
76	0x3d78372a	0.060599484
77	0x3eaa0ab8	0.33211303
78	0xbbcfbbd2	-0.0063395286
79	0x3d006335	0.03134461
80	0xbe22dc48	-0.15904343
81	0x3d052164	0.032502547
82	0x3e0ad1a1	0.1355653
83	0xbd9f3d76	-0.077753946
84	0x3e3d64f0	0.18495536
85	0x3e30da5d	0.17270799
86	0x3e83db0a	0.2575305
87	0xbe7fb58e	-0.24971601
88	0x3d80ac13	0.062828206
89	0x3d188e2f	0.03724497
90	0xbd301253	-0.042986225
91	0x3ec06994	0.3758055
92	0xbed46cdc	-0.41489303
93	0x3e7c6e44	0.24651438
94	0xbd473951	-0.048638646
95	0xbe8861ab	-0.26637015
96	0x3e846e33	0.25865325
97	0x3df748cd	0.120744325
98	0xbe71e4da	-0.23622456
99	0xbe967baa	-0.29391223
100	0x3e88ed2e	0.26743454
101	0xbe99b323	-0.30019483
102	0x3debf669	0.115216084
103	0xbe93ca9b	-0.28865513
104	0xbe7883b8	-0.24268997
105	0x3d86b680	0.06577778
106	0x3e47d8f3	0.19516353
107	0x3e059459	0.13044871
108	0x3e3e251e	0.18568847
109	0xbdf768e2	-0.12080552
110	0x3ebc6b50	0.36800623
111	0x3e863045	0.26208702
112	0x3e9e081c	0.30865562
113	0x3e9643b4	0.29348528
114	0xbda4fb52	-0.08055748
115	0x3ebbe7f2	0.36700398
116	0xbe753daf	-0.23949312
117	0x3e2d8877	0.16946588
118	0xbe300efc	-0.17193216
119	0xbde918ab	-0.11381658
120	0xbde80b2b	-0.11330255
121	0xbdb598c2	-0.08867027
122	0xbe9c9bda	-0.30587655
123	0x3daf5b92	0.085623875
124	0xbd725acd	-0.059168626
125	0xbe66ffb9	-0.22558488
126	0x3e92a16e	0.28638786
127	0x3af75acf	0.0018871668
128	0xbf0bde26	-0.54635847
129	0x3d16d07e	0.036819927
130	0xbe31d441	-0.17366125
131	0x3e125443	0.14289956
132	0x3c9481fd	0.01812839
133	0xbea21973	-0.3166004
134	0x3d6908a1	0.056892995
135	0xbebfd53e	-0.37467378
136	0xbe651868	-0.22372591
137	0xbc174519	-0.009232783
138	0x3e96b073	0.29431495
139	0x3e846dd9	0.25865057
140	0xbef9495c	-0.4868878
141	0x3d949ca4	0.07256439
142	0x3e2d6be4	0.16935688
143	0x3e708bbb	0.23490803
144	0xbedb4025	-0.42822376
145	0x3eacfdc4	0.33787358
146	0x3ea027e2	0.31280428
147	0xbb545f00	-0.0032405257
148	0x3caf8283	0.021424538
149	0x3e423e47	0.1896907
150	0x3e0482d1	0.12940527
151	0x3ece65ef	0.40312144
152	0xbec5b67f	-0.38615796
153	0xbbfc5f8b	-0.0077018193
154	0xbe12fb79	-0.14353742
155	0xbe9e66a3	-0.3093768
156	0xbd440f3f	-0.047866102
157	0x3ed01110	0.40638018
158	0x3e3faea0	0.18718958
159	0x3e89ae49	0.26890782
160	0x3d5a4eec	0.053297922
161	0x3cbf0a05	0.023320207
162	0xbe90b191	-0.28260472
163	0x3e534062	0.20630029
164	0xbeba5afe	-0.36397547
165	0x3ed6d78e	0.4196133
166	0x3ee76163	0.45191488
167	0xbac985f3	-0.0015375003
168	0x3e4a7394	0.19770652
169	0x3cd7e74e	0.026355412
170	0x3ed98dc4	0.4249097
171	0xbedab732	-0.42717892
172	0x3e64c6bc	0.22341436
173	0xbe6dbc1d	-0.23216291
174	0x3eafefab	0.3436254
175	0x3e9768f8	0.29572272
176	0x3e8b4a0f	0.2720494
177	0xbec6c4cf	-0.38822028
178	0xbd70ae04	-0.058759704
179	0xbe109d8e	-0.14122602
180	0xbe362d6f	-0.17790769
181	0x3df291d3	0.1184422
182	0xbe54ba1c	-0.2077412
183	0xbe9a909e	-0.3018846
184	0xbcaea7cc	-0.021320246
185	0xbedf5f1a	-0.43627244
186	0x3ec96636	0.39335793
187	0xbea08f27	-0.31359217
188	0x3d9957bb	0.074874364
189	0xbee47fa2	-0.44628626
190	0xbe1babb3	-0.15202217
191	0xbe643408	-0.22285473
192	0xbec76adb	-0.38948712
193	0xbe2fdfed	-0.17175265
194	0xbe630cb0	-0.22172809
195	0x3e189192	0.1489928
196	0xbeb89ac4	-0.36055577
197	0x3b2bb3cd	0.00261997
198	0xbe937413	-0.28799495
199	0xbe62a6b6	-0.22133908
200	0xbe4aba39	-0.19797601
201	0x3df9eb28	0.122030556
202	0xbe874b40	-0.264246
203	0xbea111aa	-0.3145879
204	0xbe8608ce	-0.26178592
205	0xbed012e5	-0.40639415
206	0xbda3c5ac	-0.07996687
207	0xbea18f53	-0.3155466
208	0xbe81e279	-0.25368097
209	0x3e028910	0.12747598
210	0x3ea8e6de	0.32988638
211	0xbec9e5ce	-0.3943314
212	0x3d0fbb90	0.035090983
213	0x3eb9a715	0.36260286
214	0xbe6058c9	-0.21908869
215	0xbe556528	-0.2083937
216	0x3df036e9	0.11729223
217	0x3e323add	0.17405267
218	0x3ddc8dc4	0.10769227
219	0xbef145b0	-0.4712348
220	0x3eaec5e9	0.34135368
221	0xbe70fe75	-0.23534568
222	0xbd9ec869	-0.07753069
223	0xbde1ad38	-0.11019367
224	0x3f0520b1	0.5200301
225	0x3ded0a15	0.115741886
226	0x3dc93aa9	0.09825642
227	0x3eb9b19f	0.36268327
228	0xbef919b8	-0.48652434
229	0x3e235445	0.15950115
230	0x3eab5e17	0.33470222
231	0x3eadf5aa	0.3397649
232	0x3e9615a4	0.29313385
233	0xbeacb14f	-0.33729026
234	0x3dcd7d6c	0.10033688
235	0x3ce5f6f0	0.02807185
236	0x3ed7bf97	0.4213836
237	0xbd9c4afe	-0.07631491
238	0xbe2def43	-0.16985802
239	0x3e215b9c	0.15757602
240	0xbe87ceba	-0.26524907
241	0xbeb91eec	-0.36156404
242	0x3e09b1e0	0.1344676
243	0xbebd26ee	-0.36943763
244	0xbe975811	-0.29559377
245	0xbecc4a60	-0.39900494
246	0x3e7a85ab	0.24465053
247	0x3d1ced01	0.038311962
248	0xbeb1274d	-0.34600297
249	0x3e95a821	0.29229835
250	0xbe30f536	-0.1728104
251	0xbe31b790	-0.1735518
252	0x3e725ee8	0.23669016
253	0x3e8fa4c4	0.28055394
254	0xbed512ad	-0.4161581
255	0xbead4629	-0.3384259

fc1.bias f4 [128]
0	0xbe200b07	-0.15629207
1	0xbe6a8808	-0.22903454
2	0x3ebff9e9	0.37495354
3	0xbca5c831	-0.02023706
4	0xbecebe66	-0.40379637
5	0x3e64db5b	0.22349302
6	0xbe47cc08	-0.19511425
7	0x3e97d882	0.2965737
8	0xbc285337	-0.010273746
9	0xbea8ebfa	-0.32992536
10	0xbe8e4f68	-0.27794957
11	0xbe178179	-0.14795484
12	0xbe2b7007	-0.16741954
13	0x3dabea01	0.08394242
14	0xbe98d79e	-0.29852003
15	0x3ed2dcc0	0.41184044
16	0x3e566229	0.20935883
17	0x3df8db7b	0.121512376
18	0x3e7fade1	0.24968673
19	0x3f0b7875	0.5448068
20	0xbe540e22	-0.20708516
21	0x3e67e80c	0.22647113
22	0xbdb5a5a0	-0.08869481
23	0xbeb6f553	-0.35734043
24	0xbe82d6fc	-0.25554645
25	0x3db8bd5d	0.09020493
26	0x3ed082eb	0.40724882
27	0x3dfdb669	0.123883076
28	0x3ebb14df	0.3653936
29	0x3d46269b	0.04837666
30	0xbcf43b56	-0.02981345
31	0x3e38ed50	0.18059278
32	0x3dceb27f	0.10092639
33	0xbe5eedb5	-0.21770366
34	0xbe3e23fe	-0.18568417
35	0x3ea964d9	0.33084753
36	0x3e7f52cc	0.24933928
37	0x3e04f8ee	0.12985584
38	0xbdacde5f	-0.084408514
39	0xbe753c8d	-0.2394888
40	0xbe812d88	-0.2523005
41	0x3ea21108	0.3165362
42	0xbeffedb3	-0.49986038
43	0x3e46ddb5	0.19420512
44	0xbe9bcde1	-0.3043051
45	0xbe1db86b	-0.15402381
46	0xbeb2f2f6	-0.3495099
47	0xbe35dbb8	-0.17759597
48	0xbec2af52	-0.38024384
49	0xbe818d19	-0.2530296
50	0xbe2835c4	-0.1642676
51	0xbef91cc3	-0.48654756
52	0x3ec77310	0.38954973
53	0x3d25ea22	0.04050649
54	0xbe9cf162	-0.3065291
55	0xbef761af	-0.48316714
56	0xbe3c1b24	-0.18369728
57	0xbf0333df	-0.51251024
58	0xbdde2167	-0.10846215
59	0x3eb76faf	0.35827395
60	0xbe2b8f6a	-0.16753927
61	0x3edd0eda	0.43175393
62	0xbe57a860	-0.21060324
63	0x3d89f91d	0.06736968
64	0x3d268ec8	0.04066351
65	0x3e774290	0.24146485
66	0x3ec91f74	0.3928181
67	0xbe929c7a	-0.28635007
68	0x3d17cc5a	0.03706012
69	0x3ea86031	0.32885888
70	0xbe6cbd12	-0.23119
71	0x3e4a2369	0.1974007
72	0x3e27e44a	0.16395679
73	0xbdbbefca	-0.091765955
74	0x3ead7dac	0.33884943
75	0xbece4938	-0.40290236
76	0x3e22fbf8	0.15916431
77	0x3e9cb809	0.30609158
78	0x3e2c85c4	0.16847903
79	0x3e1dbbd0	0.15403676
80	0x3e300138	0.17187965
81	0x3e833a65	0.2563049
82	0xbe468b33	-0.19389038
83	0xbe009037	-0.12555014
84	0xbec582af	-0.38576266
85	0x3d50c7f1	0.05097193
86	0xbe1b94f9	-0.15193547
87	0x3e8ae79c	0.2712983
88	0x3e57aa42	0.21061042
89	0x3cdd4a4c	0.027012967
90	0x3ec46e65	0.38365474
91	0xbe40456d	-0.18776484
92	0x3e1e11f4	0.15436536
93	0x3ea54184	0.32276547
94	0xbed36fd4	-0.41296256
95	0x3e27ed87	0.16399203
96	0xbd1fafde	-0.03898608
97	0x3e44f690	0.19234681
98	0xbecaf15b	-0.39637265
99	0xbebfd742	-0.37468916
100	0x3e92ddd3	0.28684863
101	0x3e8521db	0.26002392
102	0x3dd2fa50	0.103016496
103	0xbdf7f24f	-0.121067636
104	0x3dbe6108	0.09295851
105	0xbf0a3610	-0.5398874
106	0xbc766429	-0.0150385285
107	0x3def34d5	0.11679999
108	0x3e27fedb	0.16405813
109	0xb73b1159	-1.1150108e-05
110	0x3e1d1f9b	0.15344088
111	0xbc2c7fd1	-0.010528521
112	0x3ed270c0	0.41101646
113	0xbed167cc	-0.40899503
114	0xbe966523	-0.29374036
115	0xbe12f2c4	-0.1435042
116	0xbe340f54	-0.17583972
117	0x3d686009	0.05673221
118	0xbe4c7076	-0.19964775
119	0x3e9c7726	0.30559653
120	0x3dcc0028	0.09960967
121	0xbe51e1e7	-0.20496331
122	0xbec0704a	-0.3758567
123	0x3db8ff75	0.090330996
124	0x3e18c647	0.14919387
125	0x3e3c2ff5	0.18377669
126	0x3d5b79c6	0.05358293
127	0x3eaf3115	0.34217134

fc2.weight f4 [128, 128]
0	0x3dab9936	0.08378832
1	0x3d69f5e6	0.057119273
2	0xbd904b86	-0.07045655
3	0xbdf52579	-0.11970038
4	0x3d0e0485	0.03467228
5	0xbd2a5c9c	-0.041592225
6	0xbd9ef16e	-0.07760893
7	0x3ca07fc3	0.019592172
8	0xbba74a88	-0.0051053204
9	0x3d8b4780	0.06800747
10	0x3cc8e0bd	0.024521226
11	0xbd1f66b2	-0.038916297
12	0x3e090c8c	0.13383693
13	0x3c83f7ba	0.016109336
14	0x3d143a6e	0.036188535
15	0xbdb674aa	-0.08908971
16	0xbd813625	-0.063091554
17	0x3db72bb6	0.08943884
18	0xbd2a7b8d	-0.041621733
19	0xbd9c8a24	-0.07643536
20	0xbcc51575	-0.024058083
21	0x3ca9187c	0.020641558
22	0x3dc27980	0.094958305
23	0xbcdda8a4	-0.027057953
24	0x3e16b621	0.14717914
25	0xbcf90201	-0.030396463
26	0xbc092c45	-0.008372371
27	0x3e3f3522	0.18672612
28	0xbd26e223	-0.040743005
29	0xbd96fb97	-0.07372206
30	0x3dc138b3	0.09434643
31	0xbdb46902	-0.08809091
32	0x3d5aebfa	0.0534477
33	0xbcae0438	-0.021242246
34	0x3d9ba419	0.075996585
35	0x3c990fce	0.018684294
36	0xbcd32889	-0.025776165
37	0xbd60f40f	-0.054920252
38	0x3e1e3af1	0.15452172
39	0xbdf8f6fd	-0.12156484
40	0x3da00d63	0.07815053
41	0xbcf1f6b3	-0.02953658
42	0x3d0ad09d	0.033890355
43	0x3d3ecf5c	0.046584472
44	0x3d1b414a	0.03790406
45	0x3d647d6a	0.055783667
46	0x3d9190da	0.07107706
47	0x3e6becd4	0.23039562
48	0x3cfa7473	0.030573105
49	0x3c82310d	0.01589253
50	0xbd889551	-0.06669105
51	0xbd79057a	-0.06079624
52	0x3d9fe9ef	0.07808291
53	0xbb078c81	-0.0020683112
54	0x3d8ce14f	0.06878912
55	0xbccf3b82	-0.02529693
56	0x3d2681b4	0.04065104
57	0xbbff69ab	-0.007794579
58	0x3d9941d8	0.07483262
59	0x3bc2ed97	0.005948733
60	0xbd682f85	-0.056685943
61	0x3e1007d2	0.14065483
62	0xbcd1c9ff	-0.025609015
63	0xbd66d3ad	-0.056354214
64	0xbdccea64	-0.10005644
65	0xbc30c1b0	-0.010788366
66	0x3ce32fe5	0.027732799
67	0x3e1f7718	0.15572774
68	0x3c9e6977	0.019337399
69	0x3d5838a6	0.0527884
70	0xbd669640	-0.056295633
71	0x3d41da34	0.047327235
72	0xbcc2f98f	-0.02380064
73	0xbce311fe	-0.02771854
74	0x3d68eb4b	0.056865018
75	0x3d904cbe	0.070458874
76	0x3cfadd82	0.030623201
77	0x3cf8ca12	0.030369792
78	0x3c7bf821	0.015378983
79	0xbdc9af83	-0.09847929
80	0x3c54d896	0.012991091
81	0xbc7593eb	-0.01498888
82	0x3dae8bba	0.085227445
83	0xbd87b7dc	-0.06626865
84	0x3d493004	0.049118057
85	0xbcad47c1	-0.021152379
86	0x3d70fc91	0.058834616
87	0x3d6d3005	0.057907123
88	0x3d6b8920	0.05750382
89	0xbd37d666	-0.0448822
90	0x3dd8942e	0.10575138
91	0x3d42bf4d	0.04754572
92	0x3e326a04	0.17423254
93	0x3dbf0c97	0.09328573
94	0xba3fd686	-0.0007318038
95	0xbafbe8e0	-0.0019219182
96	0x3d04826b	0.03235094
97	0xbda4d123	-0.08047702
98	0x3dc6074d	0.09669361
99	0xbd5b99dc	-0.05361353
100	0xbd872e52	-0.06600632
101	0x3dd54499	0.104134746
102	0x3d7d3629	0.06181923
103	0xbd3c1732	-0.04592056
104	0xbd4dc3a2	-0.050235398
105	0xbd1367c0	-0.035987616
106	0xbd94f960	-0.07274127
107	0x3b5e1790	0.0033888556
108	0xbbac0e57	-0.005250733
109	0xbdbda5b9	-0.09260125
110	0xbd79bc76	-0.060970746
111	0xbd791269	-0.060808573
112	0x3c094b05	0.008379702
113	0x3d77243c	0.06033729
114	0x3d169b42	0.03676916
115	0xbd1f2348	-0.038852006
116	0x3d4d430e	0.050112776
117	0x3c857dd2	0.016295347
118	0x3db3e5e3	0.08784082
119	0xbcf668a2	-0.03007919
120	0xbd5feeec	-0.054671213
121	0x3e29678b	0.16543405
122	0x3d530d2b	0.05152623
123	0x3c42b1f1	0.011883245
124	0xbcd02232	-0.02540693
125	0x3cc26972	0.02373192
126	0xbd669144	-0.05629088
127	0xbd9671e3	-0.07345941
128	0xbdb03023	-0.08602931
129	0xbd48f654	-0.04906304
130	0x3e13d28a	0.14435783
131	0x3d56dc55	0.05245622
132	0x3d16a4f2	0.036778398
133	0x3c6e78fa	0.01455521
134	0xbe082ef2	-0.13299158
135	0x3e718184	0.23584563
136	0x3d087563	0.033315074
137	0xbd8601a5	-0.065432824
138	0xbae5dff5	-0.0017538058
139	0xbd6ee0f0	-0.058319986
140	0x3dcc65b6	0.09980337
141	0xbda68f7a	-0.08132835
142	0x3c8437fe	0.01613998
143	0xbddce529	-0.10785896
144	0xbc87421c	-0.016511016
145	0xbce3225c	-0.027726345
146	0x3de52cab	0.1119016
147	0x3c7ea759	0.0155428285
148	0xbd2772c6	-0.04088094
149	0xbc779237	-0.015110544
150	0xba6626dc	-0.0008779594
151	0x3b4c6906	0.0031190529
152	0xbd045c42	-0.032314546
153	0xbc01a986	-0.007913953
154	0x3e31bb84	0.17356688
155	0xbcfec14b	-0.031098029
156	0xbc0db2a8	-0.008648552
157	0x3d2135bf	0.039357897
158	0xbd8b174e	-0.067915544
159	0xbe016ff0	-0.12640357
160	0xbd980747	-0.07423263
161	0xbcd8656c	-0.02641555
162	0x3d48a3be	0.04898428
163	0x3dc12ad6	0.094319984
164	0x3d9895f0	0.07450473
165	0x3cd9581f	0.026531277
166	0xba8d7043	-0.0010790903
167	0x3d8f87d8	0.07008332
168	0xbdab525d	-0.08365319
169	0x3d570fa3	0.052505147
170	0xbc450a7b	-0.0120264245
171	0xbc770484	-0.01507676
172	0xbd118b23	-0.03553308
173	0xbd616c42	-0.055034883
174	0xbd511eef	-0.05105489
175	0xbded3b22	-0.11583544
176	0x3d25563a	0.040365435
177	0xbc89b9d9	-0.016812252
178	0xbd3df70f	-0.04637819
179	0x3cf0ab45	0.029378543
180	0xbd187ab2	-0.037226386
181	0x3d843fa6	0.064574525
182	0xbbaf7a80	-0.0053551793
183	0x3e0774f2	0.13228205
184	0x3d13d7df	0.036094543
185	0xbd80eed3	-0.06295552
186	0x3e0d668f	0.13808654
187	0x3e1534ba	0.14570895
188	0xbd6204cd	-0.05518036
189	0x3e118286	0.14209947
190	0x3baf57e9	0.005351056
191	0xbe5b9c35	-0.21446307
192	0xbe3bccac	-0.18339795
193	0x3d8888fe	0.06666754
194	0x3cbc4a12	0.022984538
195	0xbe190fa9	-0.1494738
196	0xbe03b883	-0.12863354
197	0x3dae42d0	0.08508837
198	0xbc2df116	-0.010616561
199	0x3deb7a15	0.11497895
200	0x3e6bc1e5	0.23023184
201	0x3d85498d	0.06508169
202	0x3e0f18d9	0.13974322
203	0xbd61e188	-0.055146724
204	0x3e78b9c5	0.24289615
205	0x3e8ab1cf	0.27088782
206	0x3b8f7c8a	0.00437886
207	0xbdcd88b3	-0.10035839
208	0x3cab7351	0.02092901
209	0xbcb8f97b	-0.022579899
210	0x3d5c34b7	0.05376121
211	0xbc86ddc7	-0.016463174
212	0x3db338d1	0.08751071
213	0x3e7e9fd4	0.24865657
214	0xbd0ecf90	-0.034865916
215	0xbda48d91	-0.08034814
216	0x3d149cb9	0.036282275
217	0x3dc9fc34	0.09862557
218	0x3d8fd453	0.070229195
219	0x3cb8b71c	0.02254825
220	0xbd99ac08	-0.075035155
221	0x3d8ca54e	0.06867467
222	0x3d4a06ec	0.049323007
223	0x3df81563	0.12113454
224	0x3dfb130b	0.122594915
225	0xbe0b6908	-0.13614285
226	0x3da8264c	0.082104295
227	0xbd28dbe1	-0.041225318
228	0xbe04ce91	-0.12969424
229	0x3e0d1740	0.137784
230	0x3c9b0ae1	0.018926086
231	0xbe801eb6	-0.2502343
232	0xbd9cad24	-0.076502115
233	0xbd17b152	-0.03703434
234	0xbda6bd8a	-0.081416205
235	0xbd4422ff	-0.047884937
236	0x3d39f4f8	0.045399636
237	0xbd7ae05b	-0.06124912
238	0x3e366575	0.1781214
239	0x3c863a95	0.016385356
240	0x3d294642	0.04132677
241	0x3db41bac	0.087943405
242	0x3dd7fddc	0.10546467
243	0xbc613efd	-0.013747928
244	0x3ce3c0b3	0.027801847
245	0xbcd8e0aa	-0.026474316
246	0xbdd0db48	-0.101980746
247	0x3dece137	0.11566394
248	0x3cc40289	0.02392699
249	0x3e3700a3	0.17871337
250	0xbe322bfa	-0.17399588
251	0x3c949c25	0.018140862
252	0x3d016558	0.03159079
253	0xbdd1a5e9	-0.10236723
254	0xbd04674a	-0.032325067
255	0x3e52e74a	0.20596042

fc2.bias f4 [128]
0	0x3d291285	0.041277427
1	0x3dbb3c32	0.09142341
2	0x3dc0e836	0.09419291
3	0xbd2555c1	-0.040364984
4	0xbcafed2c	-0.021475397
5	0xbdddce5f	-0.10830378
6	0xbd30b033	-0.043136787
7	0xbda551be	-0.08072232
8	0x3ca47a02	0.02007771
9	0x3d749cda	0.059719898
10	0x3d4b528f	0.04963928
11	0xbcf9d732	-0.030498121
12	0xbd7b2e42	-0.06132341
13	0xbd8b8c8d	-0.06813917
14	0x3be8b7d9	0.0071019945
15	0x3cf99c61	0.030470075
16	0x3da5d246	0.08096747
17	0xbba5d150	-0.0050603524
18	0x3d2f2db7	0.042768206
19	0xbd8ea8d9	-0.06965799
20	0x3c14319e	0.009045033
21	0xbd8d8249	-0.069096155
22	0xbd3863ca	-0.04501704
23	0x3d98a8eb	0.074540935
24	0x3e174788	0.14773381
25	0x3e455486	0.19270524
26	0xbd3ddcc8	-0.04635313
27	0x3dcfc78b	0.10145482
28	0xbd392e3c	-0.04521011
29	0x3cf4b95c	0.029873542
30	0x3cdaf854	0.02672974
31	0x3c27fd8e	0.010253323
32	0x3ddd48dc	0.108049124
33	0x3d7c5044	0.061599985
34	0x3d4999bf	0.04921889
35	0xbcff12b9	-0.031136857
36	0xbd92e90d	-0.07173357
37	0xbd391ffa	-0.04519651
38	0xbd338fea	-0.04383842
39	0xbd5cfa91	-0.053949896
40	0xbdafe9aa	-0.0858949
41	0xbc3b2614	-0.011422653
42	0x3d122f67	0.035689738
43	0xbcce15d1	-0.025156887
44	0xbbc48aa6	-0.0059979735
45	0x3d3431cd	0.043992806
46	0xbd8f3391	-0.069922574
47	0x3ca6577b	0.020305386
48	0xbc27f3a2	-0.010250958
49	0x3db5d91d	0.08879302
50	0xbd3a49bb	-0.04548047
51	0xbd74d971	-0.05977768
52	0x3dcaf934	0.09910813
53	0xbd912c64	-0.07088545
54	0x3d827966	0.06370811
55	0xbc2bc1f9	-0.010483258
56	0x3d4e38e9	0.050347243
57	0x3c4aa9d0	0.012369588
58	0x3d7f2adf	0.062296744
59	0x3bbe04ec	0.0057989266
60	0x3e37fad9	0.17966785
61	0x3dd1687c	0.10225007
62	0x3d144132	0.036194988
63	0x3e114abb	0.14188664
64	0xbd649e49	-0.055815015
65	0x3d0e7167	0.034776118
66	0xbd38de9b	-0.045134168
67	0xbd17947f	-0.03700685
68	0x3db900d4	0.09033361
69	0x3de97c2d	0.11400638
70	0x3d2f5fb5	0.042815883
71	0xbda4c0bf	-0.08044576
72	0x3d65113d	0.055924643
73	0xbd99e769	-0.07514841
74	0x3cd10087	0.025512947
75	0xbc475061	-0.01216516
76	0x3d9a5b95	0.07536999
77	0xbd35eb34	-0.04441376
78	0xbd801721	-0.062544115
79	0xbdd52d13	-0.10408988
80	0x3d288dc5	0.041150827
81	0xbc766a3d	-0.015039978
82	0x3cb81cf4	0.022474743
83	0x3cdf1c89	0.027235286
84	0x3d7ef6f7	0.062247243
85	0xbb440af2	-0.002991375
86	0xbdc4c38f	-0.09607612
87	0x3c941b92	0.018079553
88	0x3b0f4b1e	0.0021864842
89	0x3dfa5bed	0.12224565
90	0xbd87f8b1	-0.06639231
91	0xbd126425	-0.035740037
92	0xbdf120dc	-0.117738456
93	0xbcb7f0dc	-0.022453718
94	0x3c76ea8c	0.015070569
95	0x3ab36d1d	0.0013689135
96	0xbdbc8928	-0.09205848
97	0xbd4f4226	-0.050600193
98	0x3caf8c87	0.021429313
99	0xbd247c75	-0.040157754
100	0x3cd15d14	0.025557078
101	0xbc086438	-0.008324675
102	0x3da11d53	0.07866921
103	0xbd98f24a	-0.07468088
104	0xbd09e7e0	-0.0336684
105	0xbdb17e71	-0.08666695
106	0xbddec3cc	-0.10877189
107	0xbd1308a5	-0.035896916
108	0x3d7cfe8c	0.061766192
109	0xbdc6712e	-0.09689556
110	0xbd5f7a30	-0.054559886
111	0x3d01d3de	0.031696193
112	0x3d69c0f0	0.057068765
113	0xbdd66b44	-0.10469678
114	0x3ce19459	0.027536558
115	0xbbf96d34	-0.007611895
116	0x3b816bd4	0.0039496217
117	0xbdb5c1af	-0.08874833
118	0xbe0d7cdf	-0.13817166
119	0xbc91f488	-0.017816797
120	0xbdb9935f	-0.09061312
121	0xbd13ab32	-0.036051936
122	0x3d029b81	0.03188658
123	0xbcaca9af	-0.021077005
124	0xbce91f21	-0.028457226
125	0x3d4f8ba9	0.0506703
126	0x3cc3888a	0.023868818
127	0xbe092aaf	-0.13395189

fc3.weight f4 [64, 128]
0	0xbd2e4d04	-0.042553917
1	0xbcc18981	-0.023625137
2	0x3e09f1d3	0.13471155
3	0xbd5370f8	-0.051621407
4	0x3d81bcfd	0.06334875
5	0x3c9f46d8	0.01944296
6	0x3c0cc284	0.008591298
7	0xbddf8570	-0.10914123
8	0x3e021b08	0.12705624
9	0x3dd9cfa4	0.106353074
10	0x3d7888fe	0.06067752
11	0xbd959c6b	-0.07305225
12	0xbc7a0eec	-0.015262347
13	0x3b280fda	0.0025644214
14	0x3d801c46	0.06255393
15	0x3c766f58	0.015041195
16	0xbc8eeb34	-0.017446138
17	0xbd1b6faf	-0.037948307
18	0xbd79415e	-0.060853355
19	0xbce7ad86	-0.028280985
20	0x3e069b6b	0.13145225
21	0xbca9962c	-0.02070149
22	0xbcd13f5c	-0.025542907
23	0x3b34c1ec	0.0027581407
24	0xbe1721e5	-0.14759023
25	0xbc4d2b6f	-0.012522562
26	0x3daf332f	0.08554684
27	0xbe62926a	-0.22126165
28	0xbd82fb95	-0.06395642
29	0xbd31f50f	-0.043446597
30	0xbc833508	-0.016016498
31	0xbd9234e0	-0.07138991
32	0xbdb67de9	-0.08910734
33	0x3dcd187e	0.10014437
34	0x3c40b222	0.01176122
35	0x3d7d89ff	0.06189918
36	0x3bca8f90	0.0061816648
37	0x3d8b5d33	0.06804886
38	0x3ba8d0d7	0.005151849
39	0x3c886ac1	0.016652467
40	0x3d942267	0.07233124
41	0xbd9cb1ae	-0.07651077
42	0xbc99255a	-0.018694568
43	0xbd34120b	-0.04396252
44	0xbcb74f4d	-0.02237668
45	0xbd0d6393	-0.03451879
46	0xbd8ec408	-0.06970984
47	0x3d90ccd8	0.07070321
48	0xbd9b3c33	-0.075798415
49	0x3e7eb6d0	0.24874425
50	0x3e00c7d5	0.1257623
51	0xbdb21e7d	-0.086972214
52	0x3bc37d68	0.0059658773
53	0x3d32d910	0.04366404
54	0x3e82f1bf	0.25575063
55	0xbb9f77d0	-0.0048665777
56	0xbe30fd30	-0.17284083
57	0x3e2768bd	0.16348548
58	0x3d0d1016	0.03443917
59	0x3ddc0b57	0.107443504
60	0x3c3d39cf	0.011549427
61	0x3e0e6401	0.13905336
62	0xbdd560d5	-0.1041886
63	0xbdfbd22b	-0.12295946
64	0x3c1c6818	0.009546302
65	0x3d5ed926	0.054406308
66	0xbd3de460	-0.046360373
67	0x3cada9c3	0.021199113
68	0x3e97fd34	0.29685366
69	0x3e4d93b0	0.2007587
70	0x3deb8491	0.114998944
71	0xbcd91c4a	-0.026502747
72	0xbc7161ab	-0.0147327585
73	0xbd76df96	-0.060271822
74	0x3da3f0bd	0.080049016
75	0x3d1cd8fa	0.038292862
76	0x3e5e8faf	0.21734498
77	0x3dafbe19	0.0858118
78	0xbd880c42	-0.06642963
79	0x3d86ee73	0.06588449
80	0xbd17839a	-0.03699074
81	0x3db702a8	0.089360535
82	0x3c6ee924	0.014581952
83	0xbd0af696	-0.03392657
84	0xbd2f1dce	-0.042753033
85	0x3e429998	0.19003904
86	0xbcc055a1	-0.023478331
87	0xbdbbbaf8	-0.09166521
88	0x3c8e4ee6	0.017371606
89	0x3c9a2103	0.01881457
90	0x3d3b27de	0.045692317
91	0xbbea4f9f	-0.007150605
92	0x3d256020	0.040374875
93	0x3d6b1edd	0.05740248
94	0x3e8f5cd4	0.2800051
95	0x3baab971	0.0052100946
96	0x3d904495	0.07044331
97	0xbb5351e7	-0.0032244863
98	0x3d5d1537	0.05397531
99	0xbd4f6cfa	-0.050641038
100	0x3d884eb8	0.066556394
101	0x3e25a982	0.16177943
102	0x3df9de63	0.1220062
103	0x3ded7db7	0.11596244
104	0xbca96e70	-0.020682544
105	0x3d56293e	0.052285425
106	0x3d05d9fc	0.03267859
107	0xbd81ebd7	-0.06343811
108	0x3ad30600	0.0016099811
109	0xbdda64a8	-0.1066373
110	0x3db507f5	0.08839408
111	0xbda8f9d8	-0.08250779
112	0x3d9c2d4d	0.07625828
113	0xbe004f1f	-0.12530182
114	0xbc8317e3	-0.016002601
115	0xbc8ca557	-0.017168684
116	0x3c84631f	0.016160546
117	0xbd5fd10a	-0.054642715
118	0x3d9d564b	0.07682475
119	0xbd6602ba	-0.056154944
120	0x3db25889	0.08708293
121	0x3d9f2e3c	0.077724904
122	0xbddd37f5	-0.108016886
123	0xbc692b1f	-0.014231472
124	0x3e5685aa	0.20949426
125	0x3e29a3d4	0.16566402
126	0xbcebae61	-0.028769674
127	0x3d1f1089	0.03883413
128	0xbc393263	-0.011303517
129	0x3ddea049	0.10870416
130	0xbd1e8740	-0.038703203
131	0xbdad333c	-0.08457038
132	0xbd80e282	-0.06293203
133	0xbcce4529	-0.025179463
134	0xbb2237c5	-0.002475248
135	0xbddf395c	-0.10899612
136	0xbdd07950	-0.101793885
137	0x3da4042c	0.08008608
138	0xbd53d6b8	-0.051718444
139	0x3d49870a	0.04920105
140	0xbdf2d926	-0.11857824
141	0xbddcaa2c	-0.10774645
142	0xbd053d34	-0.03252907
143	0xbcd70d8e	-0.02625158
144	0x3d7ed076	0.062210523
145	0xbd1d6d97	-0.03843459
146	0xbe03cff4	-0.12872297
147	0xbdc2e102	-0.09515573
148	0xbc722440	-0.0147791505
149	0x3ad5bec0	0.0016307458
150	0xbd856712	-0.065138
151	0xbd5ce11b	-0.053925615
152	0xbd660503	-0.056157123
153	0x3e1dc9f0	0.15409064
154	0xbdacaa44	-0.08430913
155	0x3d8f517b	0.06997963
156	0x3b0b3e80	0.002124697
157	0x3dcb7e1b	0.09936162
158	0xbd8d7497	-0.069070034
159	0xbce61d32	-0.028090093
160	0x3d941ed0	0.072324395
161	0x3d99d1df	0.07510733
162	0x3cea4144	0.028595574
163	0xbc9ac452	-0.018892441
164	0x3dae6983	0.085162185
165	0x3d3b7345	0.045764226
166	0x3d1e4a00	0.03864479
167	0xba8e423f	-0.0010853483
168	0xbc8190bb	-0.015816083
169	0x3da54527	0.080698304
170	0xbd2db3d8	-0.04240784
171	0xbda82579	-0.08210272
172	0x3d62ed7a	0.055402257
173	0xbda62164	-0.081118375
174	0xbc8a1d08	-0.016859546
175	0x3cc819fa	0.02442645
176	0xbd6c8c33	-0.057750892
177	0xbdc6e8b4	-0.09712353
178	0xbd8f2f61	-0.06991459
179	0x3d9a9da0	0.07549596
180	0xb9cdb246	-0.0003923347
181	0x3d833526	0.06406622
182	0xbdf3a514	-0.118967205
183	0x3d05e17a	0.032685734
184	0x3a1b527e	0.0005925073
185	0xbe10e899	-0.14151229
186	0x3cb72210	0.02235511
187	0x3db963ae	0.090522155
188	0x3d5b2b17	0.05350789
189	0xbd85940e	-0.0652238
190	0xbcc0a0fb	-0.023514261
191	0x3d589cc1	0.052883867
192	0xbd84d55c	-0.064860076
193	0xbd5cf81f	-0.053947564
194	0xbceb827f	-0.028748749
195	0x3d2937a1	0.041312817
196	0xbe507328	-0.20356429
197	0x3d5fd14d	0.054642964
198	0x3cee4339	0.029084789
199	0x3d334767	0.043769266
200	0x3c98dade	0.018659052
201	0xbda8a6da	-0.082349494
202	0x3d4d1d1b	0.050076585
203	0x3d6f95b6	0.058492385
204	0x3ce45d97	0.027876658
205	0x3d294a82	0.04133082
206	0xbd7dc8fa	-0.061959244
207	0x3d3f6e79	0.046736214
208	0xbd308055	-0.043091137
209	0xbdda7717	-0.10667246
210	0x3d9f6a4a	0.07783945
211	0xbd297035	-0.041366775
212	0xbd0ee078	-0.03488204
213	0xbe32ac77	-0.17448603
214	0x3d2a87a0	0.04163325
215	0x3ae87169	0.0017733994
216	0xbb0c9aab	-0.0021454494
217	0xbc9fa1cf	-0.019486336
218	0x3cb45fb4	0.022018291
219	0xbcf09571	-0.029368134
220	0x3d05e18e	0.03268581
221	0x3bfd0dff	0.0077226157
222	0xbd820b5b	-0.06349822
223	0xbd608b72	-0.054820485
224	0xbd0af622	-0.033926137
225	0x3cffaf8c	0.031211637
226	0xbd32f95e	-0.043694846
227	0x3ca2f798	0.019893453
228	0x3d8f61ac	0.07001051
229	0xbd3bada3	-0.04581989
230	0x3d585295	0.05281313
231	0xbdebad49	-0.11507661
232	0xbc802aef	-0.015645472
233	0xbd643d29	-0.05572239
234	0xbda83fd4	-0.08215299
235	0x3d95ebf7	0.07320397
236	0x3d07369a	0.033011056
237	0xbc41be86	-0.0118252095
238	0xbd8781a8	-0.06616527
239	0xbc7a4778	-0.015275829
240	0xbdda8441	-0.10669757
241	0x3d9d3d86	0.0767775
242	0x3c89bc09	0.016813295
243	0x3c9816e3	0.0185656
244	0x3d5d00ab	0.053955715
245	0xbd5a31fa	-0.053270318
246	0xbba658a6	-0.0050764857
247	0xbd9ed691	-0.07755769
248	0x3ca9a026	0.020706248
249	0x3b3f44a2	0.0029185195
250	0x3da9263c	0.08259246
251	0x3dd13ef7	0.10217088
252	0xbd982e05	-0.074306525
253	0xbc2a8ab4	-0.010409046
254	0xbbb5e1d2	-0.0055506015
255	0xbc6e8154	-0.014557201

fc3.bias f4 [64]
0	0xbcc03e76	-0.023467284
1	0x3dbb0d8c	0.09133443
2	0x3ce44126	0.027863096
3	0xbdee6ac5	-0.116414584
4	0xbd872fbd	-0.06600902
5	0x3c4ab869	0.012373068
6	0x3df095df	0.11747336
7	0xbd9b1ca1	-0.0757382
8	0x3db4d020	0.08828759
9	0xbd6eec92	-0.05833108
10	0x3d0c16b0	0.034201324
11	0x3b0347c7	0.0020031796
12	0x3ceb05ef	0.028689353
13	0xbc494185	-0.0122836875
14	0xbda2cae7	-0.07948857
15	0xbd661bbc	-0.056178793
16	0x3dae07ef	0.08497607
17	0xbd6a13e1	-0.057147864
18	0xbdbb250e	-0.09137927
19	0xbdc6046b	-0.096688114
20	0xbddde094	-0.108338505
21	0x3dfc3686	0.12315087
22	0x3c197240	0.009365618
23	0x3d13672c	0.035987064
24	0xbd1c3326	-0.038134716
25	0xbdfe7646	-0.124249026
26	0x3c296016	0.01033785
27	0xbd9ed38e	-0.077551946
28	0x3d546e02	0.051862724
29	0x3dc2edc5	0.09518007
30	0xbe1ca7d7	-0.15298401
31	0xbd5258d6	-0.05135425
32	0x3cd8baf8	0.026456341
33	0x3d1224ad	0.035679508
34	0xb9a11bea	-0.0003072911
35	0xbd792dc9	-0.06083468
36	0xbce65b7c	-0.028119795
37	0xbc72032a	-0.014771262
38	0xbe033688	-0.12813771
39	0x3d0e9c11	0.034816805
40	0x3e036ff3	0.12835674
41	0x3c769882	0.015051009
42	0xbd64414a	-0.055726327
43	0x3d23c56c	0.039983198
44	0xbc0a72e4	-0.008450244
45	0xbdbeb0f3	-0.09311094
46	0xbc92dd3f	-0.017927764
47	0x3ca0c063	0.019622987
48	0x3d8ccf7c	0.06875512
49	0x3cc29150	0.023750931
50	0x3d3e6edd	0.046492446
51	0x3da32089	0.0796519
52	0xbccd1350	-0.025033623
53	0xbd741869	-0.05959359
54	0x3c03e63e	0.0080504995
55	0x3d1871c0	0.037217855
56	0xbdaa3413	-0.083107136
57	0x3d8d9b3a	0.06914373
58	0xbc8b2dfd	-0.016989702
59	0x3cd056d5	0.02543203
60	0x3d2763fb	0.040866833
61	0x3d32e5fe	0.04367637
62	0x3d83f31c	0.06442854
63	0xbe110adf	-0.14164303

fc4.weight f4 [4, 64]
0	0x3dfe3c4d	0.12413845
1	0xbd373a19	-0.04473314
2	0x3db876f3	0.09007063
3	0xbd3461b3	-0.044038486
4	0xbd15e1b6	-0.036592208
5	0x3e291f6c	0.16515893
6	0x3d60483c	0.054756388
7	0x3de7d15a	0.113192275
8	0x3d92df3e	0.07171486
9	0xbe419fda	-0.18908635
10	0x3d92b8ad	0.0716413
11	0x3d599dec	0.05312912
12	0xbdf590b4	-0.119904906
13	0x3d466e18	0.048444837
14	0xbd94f4ca	-0.07273252
15	0xbd2217cd	-0.03957348
16	0x3d6761e8	0.056489855
17	0xbe301abe	-0.17197701
18	0xbd038c19	-0.03211603
19	0xbdbb08ba	-0.09132524
20	0xbe071687	-0.13192187
21	0x3db1b0f7	0.086763315
22	0x3cfd1d3c	0.03089773
23	0x3ab24b59	0.0013602778
24	0xbcd1470e	-0.025546577
25	0xbd8074b0	-0.062722564
26	0x3c1410c9	0.009037205
27	0x3a12c005	0.0005598071
28	0x3dc8f4fd	0.09812353
29	0x3d48e1bd	0.049043406
30	0xbe207177	-0.15668283
31	0xbcfad24c	-0.030617855
32	0x3d38a3d1	0.045078102
33	0xbd2ebb48	-0.042659074
34	0xbd48824c	-0.048952386
35	0x3c14f2e2	0.009091111
36	0x3c912973	0.01771996
37	0x3c8bc901	0.01706362
38	0xbe4b6662	-0.19863275
39	0xbb593bef	-0.0033147295
40	0x3e57b50f	0.21065162
41	0x3d64ce02	0.055860527
42	0xbe095459	-0.13411082
43	0xbbaab4b8	-0.0052095316
44	0xbdcf0e25	-0.1011012
45	0xbd76ef5c	-0.060286865
46	0xbd2f72ae	-0.042833976
47	0xbde9f499	-0.114236064
48	0x3dcec4e3	0.10096147
49	0xbe59ea9b	-0.21280901
50	0x3e6444fb	0.22291939
51	0xbd9f562b	-0.07780107
52	0xbd68434f	-0.056704815
53	0xbd9ec734	-0.07752839
54	0xbd82a034	-0.063782126
55	0xbde37cb6	-0.11107771
56	0xbd535ff0	-0.051605165
57	0x3e070cab	0.13188426
58	0x3d8a5db5	0.067561544
59	0x3d92f2a3	0.071751855
60	0xbddd8cf8	-0.10817903
61	0x3cb7d07d	0.022438282
62	0x3e04296a	0.12906423
63	0xbad8ba43	-0.0016535003
64	0xbe1fc3d5	-0.15602048
65	0xbd18872f	-0.037238296
66	0xbdf69f87	-0.12042146
67	0xbdadb683	-0.08482077
68	0x3d364144	0.044495836
69	0xbe828995	-0.25495592
70	0xbe620c5e	-0.2207503
71	0x3c4b6eba	0.012416536
72	0xbe57529c	-0.21027607
73	0x3e126af1	0.14298607
74	0xbd17e0f6	-0.037079774
75	0xbdb97f38	-0.09057468
76	0xbb1427ee	-0.0022606808
77	0x3dca1be3	0.098686
78	0xbda4270c	-0.0801526
79	0x3d0d99a5	0.034570355
80	0xbe96985d	-0.2941312
81	0x3c9e54d4	0.019327559
82	0xbd416fbf	-0.04722571
83	0xbd10c493	-0.035343718
84	0xbdd514c2	-0.1040435
85	0x3d2ac9d8	0.0416964
86	0xbd91b2e4	-0.07114199
87	0x3d2e1cbc	0.042507872
88	0xbda0ecdf	-0.078576796
89	0xbdc37a3d	-0.095447995
90	0xbd57d281	-0.052690987
91	0x3d90479b	0.07044908
92	0xbe1a1167	-0.15045701
93	0xbe32d31e	-0.17463347
94	0xbd961645	-0.07328466
95	0xbd60e55b	-0.05490623
96	0x3d93de23	0.072201036
97	0x3d854355	0.06506983
98	0xbe8d13b5	-0.27554098
99	0x3dfccce5	0.12343768
100	0xbd8d8e59	-0.06911916
101	0x3d94fb52	0.07274498
102	0xbeca7831	-0.39544824
103	0x3c48d3ce	0.012257529
104	0xbe00c3af	-0.12574647
105	0xbe961438	-0.293123
106	0x3b9850ad	0.004648289
107	0xbdbff3f8	-0.09372705
108	0xbce18e18	-0.027533576
109	0x3dfd9131	0.12381209
110	0x3e35b991	0.17746569
111	0xbd41788d	-0.047234107
112	0xbcc33bac	-0.023832165
113	0xbea5cc6b	-0.3238252
114	0x3d06f523	0.032948624
115	0xbe8720b0	-0.26392126
116	0xbd55784f	-0.05211669
117	0xbd822e4e	-0.06356488
118	0x3c925868	0.017864421
119	0xbd815ea8	-0.06316882
120	0x3c31454c	0.010819744
121	0x3d5dfebb	0.054198008
122	0xbdf5dd08	-0.12005049
123	0xbcc603bf	-0.024171708
124	0xbe89b987	-0.2689936
125	0xbe2e7cfb	-0.17039864
126	0x3c9553df	0.01822847
127	0xbc6fbe91	-0.014632837
128	0x3e763b07	0.24045955
129	0xbe047af7	-0.12937532
130	0xbe12685d	-0.14297624
131	0xbcbb60dd	-0.022873336
132	0x3c859049	0.016304152
133	0x3e040c1f	0.12895249
134	0xbcfffca4	-0.031248398
135	0xbd77ed72	-0.06052918
136	0x3cbc2a04	0.022969253
137	0xbd01ba25	-0.031671662
138	0x3da5c426	0.08094053
139	0x3d424a7e	0.047434323
140	0x3ea4563f	0.3209705
141	0xbdb930f8	-0.09042543
142	0xbd12a2ce	-0.035799794
143	0xbce64649	-0.028109686
144	0x3d934e22	0.07192637
145	0x3e900a66	0.28132933
146	0xbc77736a	-0.0151032
147	0xbdecfa19	-0.1157114
148	0xbda56d76	-0.08077519
149	0xbe3e0d2e	-0.18559715
150	0x3eac45ae	0.3364691
151	0xbd774e51	-0.060377423
152	0x3ca13e24	0.019682951
153	0xbdb9abff	-0.09066009
154	0xbdba176a	-0.09086497
155	0xbd2debb8	-0.042461127
156	0xbdd9d63a	-0.106365636
157	0xbe00c524	-0.12575203
158	0x3ec2ad3b	0.3802279
159	0xbdebb2d6	-0.115087196
160	0xbc7d169b	-0.015447284
161	0xbddb2987	-0.1070128
162	0x3da41632	0.08012046
163	0x3d97fa46	0.07420783
164	0xbd0f6ce7	-0.035015967
165	0x3dd2916c	0.10281643
166	0x3e8f3a5c	0.27974212
167	0x3bd07984	0.006362142
168	0xbd93a9f4	-0.0721015
169	0x3e11b931	0.14230801
170	0x3ea8aeb9	0.32945803
171	0xbe889195	-0.2667357
172	0xbd944465	-0.07239608
173	0xbddf3a1c	-0.10899755
174	0xbe278a14	-0.16361266
175	0x3db183d9	0.08667726
176	0x3e56093b	0.20901959
177	0x3c851483	0.016245132
178	0xbe0c0b1f	-0.13676117
179	0x3dd079c7	0.10179477
180	0xbd87cf9d	-0.06631396
181	0x3d4d7309	0.050158534
182	0xbdebd048	-0.11514336
183	0x3d478770	0.048713148
184	0x3e838fed	0.25695744
185	0xbe913b3b	-0.28365502
186	0xbc918f05	-0.017768392
187	0xbdba70f1	-0.09103573
188	0x3e5f2311	0.2179072
189	0x3e3a96a1	0.18221523
190	0x3e9de887	0.30841467
191	0xbc8492a5	-0.016183207
192	0xbe9baf91	-0.30407384
193	0x3e0c5884	0.13705641
194	0x3dc88552	0.09791054
195	0x3d23f9e7	0.040033247
196	0xbd27ef0a	-0.04099945
197	0xbc5eb4d5	-0.013592918
198	0xbde035dc	-0.10947773
199	0xbcd5cc62	-0.026098434
200	0x3d8f2ee3	0.06991365
201	0x3d20fe67	0.039305117
202	0xbe064599	-0.13112487
203	0xbddfcfcc	-0.10928306
204	0xbea77461	-0.32705978
205	0xbde00522	-0.10938479
206	0xbca8b90c	-0.02059605
207	0xbdbf0436	-0.09326975
208	0x3e312090	0.17297578
209	0xbeb97aa1	-0.3622637
210	0x3d98cdbe	0.07461117
211	0xbd842a46	-0.064533755
212	0xbd9d314e	-0.0767542
213	0x3d9b44e0	0.07581496
214	0xbde36450	-0.111031175
215	0xbd60d639	-0.0548918
216	0x3c8a14a7	0.01685555
217	0xbd89a466	-0.0672081
218	0xbdc6f427	-0.09714537
219	0xbdc16b40	-0.094442844
220	0x3d87ece1	0.06636978
221	0x3e426dca	0.18987194
222	0xbe37d486	-0.17952165
223	0x3bb1b25e	0.0054228744
224	0xbd712840	-0.058876276
225	0xbdf5eafc	-0.1200771
226	0x3e4c56ca	0.19954982
227	0xbdb59674	-0.08866587
228	0xbc458345	-0.012055223
229	0xbc1d9f54	-0.009620506
230	0xbe0ecccc	-0.13945311
231	0x3b82b83c	0.0039892476
232	0x3c54d262	0.012989612
233	0xbe1c40df	-0.15259121
234	0xbea0eb87	-0.31429693
235	0x3e28a2da	0.16468373
236	0xbda54bc1	-0.080710895
237	0xbe2c60c1	-0.16833784
238	0xbc151057	-0.009098134
239	0xbde0516b	-0.10953029
240	0xbe45c406	-0.19313058
241	0xbc09dcbf	-0.008414446
242	0x3e81b74c	0.25335157
243	0x3e03f56f	0.12886594
244	0xbd4c058d	-0.04980998
245	0x3da1dbcf	0.07903253
246	0xbdbf5260	-0.09341884
247	0xbd2464c9	-0.04013518
248	0xbec46287	-0.3835642
249	0x3e39e20f	0.18152641
250	0x3e71d01a	0.2361454
251	0xbd862dc7	-0.065517
252	0xbe020e30	-0.12700725
253	0xbe82da6f	-0.25557277
254	0xbdeefb30	-0.11669004
255	0x3c4709a9	0.012148299

fc4.bias f4 [4]
0	0x3bda5720	0.006663218
1	0xbe6298b2	-0.22128561
2	0x3da86c6d	0.082238056
3	0xbd4131fa	-0.047166802
