saves/latest_model.pth (torch, 107283 bytes, 8 tensors)

fc1.weight f4 [128, 6]
-0.10295455 0.44363213 -0.33045483 0.43372568 -0.10509098 -0.19699349 -0.08136156 -0.05888325
-0.0641301 0.044079453 -0.32109702 0.29164863 -0.28414118 -0.21048267 0.2698343 -0.17860293
-0.27665305 0.3388528 0.19288526 0.37958685 -0.18032795 0.091247894 -0.21579306 0.10259436
0.27479342 -0.06687181 0.34290177 -0.28846377 -0.0039319843 -0.07032262 -0.05368423 0.28952637
-0.19774671 0.36377522 -0.070310004 0.121502936 0.0065981736 -0.0031750784 0.10087729 -0.24946074
0.04188133 0.03031313 -0.40123323 -0.236858 0.37866303 0.3802884 0.4270671 -0.32184246
0.06538306 -0.028941495 0.25901297 -0.12320091 0.20533106 0.1510774 -0.3998116 0.32815644
-0.40626073 -0.296303 -0.35899276 0.2651105 0.18698844 0.32482284 -0.15314665 0.32155913
0.13434461 0.11480818 0.36290067 -0.09804671 -0.064185284 -0.31004718 -0.34159908 -0.26685905
-0.22190875 -0.25942966 0.14655375 0.52300954 0.020775065 0.32332304 -0.037895214 -0.025155175
-0.20197736 -0.020183139 0.08266584 -0.11870593 0.15966459 0.15556815 0.24139395 -0.2726905
0.04105694 0.01054391 -0.032540653 0.37197188 -0.3907092 0.22216351 -0.08535111 -0.26561487
0.24746938 0.10874965 -0.26988608 -0.29493645 0.26533893 -0.30899563 0.1123721 -0.32503504
-0.2534502 0.025304342 0.14497684 0.10935616 0.17481305 -0.1323911 0.34887928 0.26210102
0.31336632 0.2850904 -0.068307415 0.36222512 -0.2132949 0.14464575 -0.2097006 -0.11338583
-0.11330255 -0.08867027 -0.30587655 0.085623875 -0.059168626 -0.22558488 0.29485062 0.0005173005
-0.5270996 0.016346958 -0.20459163 0.14337881 0.01812839 -0.3166004 0.056892995 -0.37467378
-0.22372591 -0.009232783 0.31096205 0.28206366 -0.47267243 0.091511905 0.18593104 0.2524119
-0.4250694 0.332426 0.31736282 0.008729523 0.017499287 0.19518939 0.12644146 0.38191667
-0.4009351 -0.030804984 -0.15969752 -0.3149617 -0.04336426 0.37376085 0.16731049 0.2286769
-0.0094035 0.012093749 -0.27757072 0.17510729 -0.35244468 0.3786164 0.4023351 -0.022241639
0.1758961 0.029330753 0.3958945 -0.40549228 0.25337753 -0.23690873 0.32218438 0.2982495
0.24344063 -0.3762322 -0.031693157 -0.15001976 -0.17790769 0.1184422 -0.2077412 -0.3018846
-0.021320246 -0.43627244 0.366142 -0.3493617 0.032053098 -0.4886352 -0.17944755 -0.2601529
-0.40709972 -0.18808194 -0.2393889 0.13511157 -0.37735468 -0.014139307 -0.28799495 -0.22133908
-0.19797601 0.122030556 -0.264246 -0.3145879 -0.26178592 -0.40639415 -0.07996687 -0.3155466
-0.25368097 0.12747598 0.32709384 -0.38153845 0.013748662 0.37985104 -0.1954622 -0.20494117
0.096959084 0.17143354 0.07756248 -0.4598143 0.36318156 -0.24128422 -0.08777645 -0.11667275
0.4992491 0.12727895 0.11678652 0.35591826 -0.48660406 0.15127903 0.34932587 0.33013374
0.24845903 -0.34806764 0.046700265 -0.044749066 0.3510767 -0.1517674 -0.21464166 0.10062136
-0.26524907 -0.36156404 0.1344676 -0.36943763 -0.29559377 -0.39900494 0.25126234 0.03576419
-0.3233893 0.27231205 -0.21188618 -0.17259358 0.23669016 0.28055394 -0.4161581 -0.3384259
00000000: d6d9 d2bd c023 e33e 6031 a9be 4b11 de3e
00000010: f139 d7bd a9b8 49be e4a0 a6bd 902f 71bd
00000020: a456 83bd a88c 343d d466 a4be f852 953e
00000030: f47a 91be c588 57be b927 8a3e b0e3 36be
00000040: 78a5 8dbe 1d7e ad3e b783 453e 3559 c23e
00000050: e4a7 38be 2de0 ba3d dbf8 5cbe fe1c d23d
00000060: b9b1 8c3e 16f4 88bd d290 af3e 86b1 93be
00000070: e0d7 80bb 4e05 90bd ffe3 5bbd cd3c 943e
00000080: 1d7e 4abe bf40 ba3e b1fe 8fbd 88d6 f83d
00000090: 7e35 d83b fa14 50bb c198 ce3d a372 7fbe
000000a0: c28b 2b3d 3e53 f83c 716e cdbe e78a 72be
000000b0: 1fe0 c13e 29b5 c23e 8aa8 da3e 89c8 a4be
000000c0: 8ee7 853d b716 edbc 599d 843e c250 fcbd
000000d0: 4e42 523e 09b4 1a3e 1bb4 ccbe 1f04 a83e
000000e0: 6801 d0be 07b5 97be e6cd b7be 90bc 873e
000000f0: e679 3f3e 2e4f a63e 7ad2 1cbe 66a3 a43e
00000100: a291 093e 8d20 eb3d 1ece b93e b7cc c8bd
00000110: 9373 83bd 81be 9ebe 13e6 aebe c0a1 88be
00000120: 0c3c 63be f7d3 84be 3012 163e f4e3 053f
00000130: 7830 aa3c 998a a53e 0338 1bbd 3a12 cebc
00000140: 27d3 4ebe 1c57 a5bc b54c a93d 181c f3bd
00000150: 1d7f 233e 424d 1f3e fa2f 773e 179e 8bbe
00000160: 522b 283d 5dc0 2c3c 5949 05bd 1973 be3e
00000170: 090b c8be d57e 633e 90cc aebd acfe 87be
00000180: 9d68 7d3e 23b8 de3d 822e 8abe e901 97be
00000190: 81da 873e ad34 9ebe 5823 e63d fe6a a6be
000001a0: 3ac4 81be 0d4b cf3c cf74 143e 1ff6 df3d
000001b0: 3102 333e 8891 07be 4ea0 b23e 1b32 863e
000001c0: 8d71 a03e 5ef7 913e c2e4 8bbd 9275 b93e
000001d0: fa69 5abe 041e 143e c1bb 56be d436 e8bd
000001e0: 2b0b e8bd c298 b5bd da9b 9cbe 925b af3d
000001f0: cd5a 72bd b9ff 66be a9f6 963e 739b 073a
00000200: 00f0 06bf 0eea 853c 7880 51be e5d1 123e
00000210: fd81 943c 7319 a2be a108 693d 3ed5 bfbe
00000220: 6818 65be 1945 17bc 6b36 9f3e a66a 903e
00000230: 1f02 f2be 986a bb3d b564 3e3e 223c 813e
00000240: b2a2 d9be be33 aa3e 617d a23e 4606 0f3c
00000250: aa5a 8f3c badf 473e df79 013e 958a c33e
00000260: 5e47 cdbe bc5a fcbc bf87 23be a942 a1be
00000270: b99e 31bd 955d bf3e 7153 2b3e 472a 6a3e
00000280: 2311 1abc dc24 463c c01d 8ebe 534f 333e
00000290: a173 b4be 02da c13e defe cd3e 1934 b6bc
000002a0: 1b1e 343e 0c47 f03c afb2 ca3e af9c cfbe
000002b0: b3ba 813e 3498 72be 5af5 a43e 29b4 983e
000002c0: 8048 793e 82a1 c0be afd0 01bd c89e 19be
000002d0: 6f2d 36be d391 f23d 1cba 54be 9e90 9abe
000002e0: cca7 aebc 1a5f dfbe f776 bb3e 89df b2be
000002f0: 1c4a 033d 652e fabe 19c1 37be c332 85be
00000300: 606f d0be 8d98 40be 5d22 75be b05a 0a3e
00000310: a234 c1be 8da8 67bc 1374 93be b6a6 62be
00000320: 39ba 4abe 28eb f93d 404b 87be aa11 a1be
00000330: ce08 86be e512 d0be acc5 a3bd 538f a1be
00000340: 79e2 81be 1089 023e d878 a73e 0259 c3be
00000350: 1142 613c d67b c23e 3e27 48be 19dc 51be
00000360: 7c92 c63d 468c 2f3e 14d9 9e3d c86c ebbe
00000370: eff2 b93e 3613 77be 24c4 b3bd 1ff2 eebd
00000380: 949d ff3e 6a55 023e c52d ef3d eb3a b63e
00000390: 2b24 f9be e4e8 1a3e d7da b23e 4a07 a93e
000003a0: 0b6c 7e3e ec35 b2be c748 3f3d cc4a 37bd
000003b0: 53c0 b33e ea68 1bbe 06cb 5bbe 9212 ce3d
000003c0: bace 87be ec1e b9be e0b1 093e ee26 bdbe
000003d0: 1158 97be 604a ccbe 75a5 803e 797d 123d
000003e0: 4893 a5be 7c6c 8b3e b1f8 58be 5fbc 30be
000003f0: e85e 723e c4a4 8f3e ad12 d5be 2946 adbe

fc1.bias f4 [128]
-0.19266008 -0.22903454 0.3707561 -0.030209934 -0.39552593 0.21683665 -0.19511425 0.27047545
-0.014145082 -0.32992536 -0.291877 -0.15058585 -0.17827266 0.040842254 -0.32454643 0.4088047
0.19896993 0.09662028 0.23833165 0.5407781 -0.20708516 0.22339791 -0.08869481 -0.33906585
-0.2526724 0.07616107 0.38661245 0.10196303 0.36182112 0.039280888 -0.02981345 0.14400522
0.08484426 -0.21770366 -0.18568417 0.33185837 0.24286343 0.12307371 -0.097653985 -0.29723755
-0.2523005 0.31269795 -0.49986038 0.17896624 -0.2917827 -0.15402381 -0.3495099 -0.23898274
-0.3784927 -0.2706122 -0.1642676 -0.48654756 0.3663252 0.04102163 -0.3065291 -0.48316714
-0.187014 -0.51251024 -0.11551554 0.3511496 -0.1673404 0.41335627 -0.21946591 0.08692463
0.017394967 0.23163344 0.3918949 -0.26431057 0.03763188 0.3301956 -0.23119 0.1965889
0.14173067 -0.08333273 0.33484226 -0.38644114 0.14818361 0.29276317 0.15848674 0.12749739
0.16494653 0.24141449 -0.20561221 -0.14246061 -0.38576266 0.03303766 -0.15193547 0.20204398
0.21367337 0.026321888 0.35815316 -0.18776484 0.11341822 0.31448367 -0.3977987 0.15404609
-0.047514413 0.16506271 -0.40123296 -0.37468916 0.29068837 0.24233961 0.100470796 -0.11653604
0.09295851 -0.5398874 -0.029170193 0.11518359 0.12283441 -0.01202434 0.14551157 -0.023331674
0.4010948 -0.43735585 -0.29374036 -0.17193268 -0.1900413 0.060735967 -0.18916965 0.30395725
0.09773811 -0.23855242 -0.3758567 0.09191169 0.14610024 0.18153308 0.05333744 0.3283495
00000000: af48 45be 0888 6abe bed3 bd3e d37a f7bc
00000010: 6082 cabe 6d0a 5e3e 08cc 47be c27b 8a3e
00000020: c6c0 67bc faeb a8be e770 95be 2d33 1abe
00000030: 1c8d 36be 354a 273d f32a a6be da4e d13e
00000040: c6be 4b3e dae0 c53d 360d 743e 6f70 0a3f
00000050: 220e 54be 6cc2 643e a0a5 b5bd 0a9a adbe
00000060: 475e 81be 56fa 9b3d 11f2 c53e fed1 d03d
00000070: 9e40 b93e ffe4 203d 563b f4bc 1b76 133e
00000080: d4c2 ad3d b5ed 5ebe fe23 3ebe 57e9 a93e
00000090: 31b1 783e 120e fc3d d0fe c7bd 852f 98be
000000a0: 882d 81be f219 a03e b3ed ffbe ed42 373e
000000b0: 8b64 95be 6bb8 1dbe f6f2 b2be e4b7 74be
000000c0: ccc9 c1be af8d 8abe c435 28be c31c f9be
000000d0: fa8e bb3e 4c06 283d 62f1 9cbe af61 f7be
000000e0: 9980 3fbe df33 03bf 6993 ecbd e1c9 b33e
000000f0: 485b 2bbe 6fa3 d33e acbb 60be 8a05 b23d
00000100: e47f 8e3c 5131 6d3e 73a6 c83e b753 87be
00000110: e323 1a3d 660f a93e 12bd 6cbe 9a4e 493e
00000120: d821 113e 5aaa aabd 7270 ab3e 9ddb c5be
00000130: 72bd 173e 0ee5 953e 594a 223e ad8e 023e
00000140: bee7 283e 5c35 773e 028c 52be 32e1 11be
00000150: af82 c5be 7f52 073d f994 1bbe 9ee4 4e3e
00000160: 31cd 5a3e 00a1 d73c da5f b73e 6d45 40be
00000170: d047 e83d 0104 a13e 45ac cbbe 42be 1d3e
00000180: 799e 42bd 3306 293e 686e cdbe 42d7 bfbe
00000190: 1bd5 943e e027 783e a2c3 cd3d 73aa eebd
000001a0: 0861 be3d 1036 0abf 54f6 eebc 60e5 eb3d
000001b0: 9b90 fb3d bd01 45bc fc00 153e 1122 bfbc
000001c0: 4c5c cd3e 1bed dfbe 2365 96be 1f0f 30be
000001d0: 309a 42be 47c6 783d b0b5 41be 49a0 9b3e
000001e0: eb2a c83d 1647 74be 4a70 c0be 323c bc3d
000001f0: 4d9b 153e cfe3 393e 5c78 5a3d 6d1d a83e

fc2.weight f4 [128, 128]
0.05139929 0.057119273 -0.06806497 -0.109920785 0.030547569 -0.060317792 -0.07760893 0.005892193
-0.0075147287 0.06800747 -0.013080513 -0.0319445 0.116469994 -0.04537248 -0.0020312357 -0.111615926
-0.07809631 0.07051154 -0.049584907 -0.088828914 -0.024058083 0.007123828 0.094958305 -0.036417186
0.14629361 -0.06669518 -0.018398222 0.10797524 -0.043369602 -0.058571525 0.09434643 -0.06843775
0.0454667 -0.021242246 0.075996585 0.018791907 -0.035601426 -0.058516033 0.12634404 -0.0965015
0.07815053 -0.038577374 0.033890355 0.012208592 0.032061763 0.055783667 0.07107706 0.16860329
0.031646337 0.044900466 -0.06669105 -0.06079624 0.06615291 0.017200608 0.06878912 -0.02529693
0.06290947 -0.007794579 0.059912734 -0.010265184 -0.056686483 0.12839797 -0.024476754 -0.05683683
-0.09557482 -0.025836568 0.02552922 0.14369167 -0.014258563 0.028674189 -0.056295633 0.040369865
-0.034643386 -0.02116131 0.04582432 0.07073453 0.024847383 0.016092414 -0.0003896831 -0.07005536
0.034035955 0.0063688997 0.075102255 -0.030162621 0.049118057 -0.028350456 0.058834616 -0.041581232
0.066593975 -0.03928451 0.12656263 0.04754572 0.09372385 0.0605086 -0.008248184 -0.005514948
-0.0023894412 -0.057949584 0.09610368 -0.05361353 -0.058302946 0.094869465 0.054497283 -0.04592056
-0.050235398 -0.035987616 -0.07793516 0.0036454275 -0.037670106 -0.1556265 -0.06341091 -0.03474491
0.0024922774 0.067523524 0.03676916 -0.06502773 0.06142059 0.030386211 0.107122146 -0.036063764
-0.039774004 0.11983768 0.05152623 -0.010915524 -0.013190573 -0.013428108 -0.056286074 -0.08126898
-0.034871347 -0.04906304 0.124218106 0.04293043 0.036960546 0.0031351289 -0.13299158 0.1765671
0.023783108 -0.065432824 0.028290894 -0.07163856 0.0780045 -0.03464285 0.03677742 -0.11998278
-0.014913011 -0.021472663 0.10296519 0.002026871 -0.04088094 -0.0072624874 -0.0008779594 0.018891647
-0.032537974 0.009986163 0.16028406 -0.007999006 -0.019595332 0.03329309 -0.067915544 -0.12188089
-0.060096685 -0.02641555 0.04898428 0.08952862 0.06560892 0.010817813 0.0039487686 0.05129917
-0.08365319 0.047608953 -0.0120264245 0.0019141678 -0.031796567 -0.055034883 -0.05105489 -0.09310006
0.041090913 -0.035777103 -0.04637819 0.029378543 -0.040437456 0.05781787 -0.0053551793 0.13228205
0.030869167 -0.06295552 0.13544312 0.13835998 -0.05518036 0.116046764 0.005435131 -0.22672047
-0.15738262 0.058828097 0.010749693 -0.11835348 -0.14146955 0.09467018 -0.010616561 0.10982914
0.21406585 0.07492118 0.13228257 -0.059012175 0.2285599 0.2540722 0.02029981 -0.08710171
0.012374621 -0.0052254563 0.06056882 -0.069165066 0.08751071 0.23219292 -0.034865916 -0.016840443
0.043901373 0.094916224 -0.0039252737 0.02254825 -0.050267983 0.057791404 0.03937378 0.10386259
0.111476295 -0.13133185 0.07089996 -0.041225318 -0.120299235 0.12213857 0.01713456 -0.2516352
-0.076502115 -0.03703434 -0.07282644 -0.047883496 0.056390423 -0.044589553 0.17044742 -0.038828984
0.031770136 0.09653098 0.10546467 0.02156256 0.019720111 -0.0132071255 -0.112911515 0.107587375
0.033940412 0.21979682 -0.17399588 0.05100546 0.014015496 -0.12089685 -0.032325394 0.19444038
00000000: 1088 523d e6f5 693d a665 8bbd 261e e1bd
00000010: e53e fa3c ca0f 77bd 6ef1 9ebd 4c13 c13b
00000020: 1d3e f6bb 8047 8b3d a64f 56bc 3cd8 02bd
00000030: d287 ee3d 7ed8 39bd 7b1e 05bb e496 e4bd
00000040: f5f0 9fbd 5b68 903d 8b19 4bbd efeb b5bd
00000050: 7515 c5bc 006f e93b 8079 c23d 302a 15bd
00000060: fecd 153e 7c97 88bd deb7 96bc 1f22 dd3d
00000070: 53a4 31bd b2e8 6fbd b338 c13d 1729 8cbd
00000080: 4a3b 3a3d 3804 aebc 19a4 9b3d 7cf1 993c
00000090: cdd2 11bd 82ae 6fbd 5560 013e 94a2 c5bd
000000a0: 630d a03d 4f03 1ebd 9dd0 0a3d 8c06 483c
000000b0: 3253 033d 6a7d 643d da90 913d 57a6 2c3e
000000c0: 979f 013d 8de9 373d 5195 88bd 7a05 79bd
000000d0: 2d7b 873d 4ae8 8c3c 4fe1 8c3d 823b cfbc
000000e0: aed6 803d ab69 ffbb 0e67 753d 4d2f 28bc
000000f0: 1630 68bd c27a 033e 7983 c8bc bccd 68bd
00000100: bbbc c3bd 36a7 d3bc a822 d13c e923 133e
00000110: bf9c 69bc 22e6 ea3c 4096 66bd df5a 253d
00000120: 39e6 0dbd 7c5a adbc 48b2 3b3d 44dd 903d
00000130: bd8c cb3c 3dd4 833c 614e ccb9 2f79 8fbd
00000140: 4969 0b3d 34b2 d03b 36cf 993d 9a17 f7bc
00000150: 0430 493d 373f e8bc 91fc 703d 1551 2abd
00000160: 6c62 883d cbe8 20bd a299 013e 4dbf 423d
00000170: 4af2 bf3d ded7 773d 6423 07bc bdb6 b4bb
00000180: 2c98 1cbb 8b5c 6dbd 02d2 c43d dc99 5bbd
00000190: 12cf 6ebd ec4a c23d 8b38 5f3d 3217 3cbd
000001a0: a2c3 4dbd c067 13bd 789c 9fbd 20e8 6e3b
000001b0: f84b 1abd 8e5c 1fbe 94dd 81bd ae50 0ebd
000001c0: 7a55 233b c649 8a3d 429b 163d 422d 85bd
000001d0: 2894 7b3d 81ec f83c db62 db3d 99b7 13bd
000001e0: 11ea 22bd 756d f53d 2b0d 533d 07d7 32bc
000001f0: 461d 58bc 9101 5cbc 3a8c 66bd 5a70 a6bd
00000200: 42d5 0ebd 54f6 48bd 1066 fe3d d2d7 2f3d
00000210: f163 173d bc76 4d3b f22e 08be 02ce 343e
00000220: cbd4 c23c a501 86bd 4ec2 e73c 3db7 92bd
00000230: d3c0 9f3d a9e5 0dbd eca3 163d 88b9 f5bd
00000240: b455 74bc 70e7 afbc 6adf d23d 41d5 043b
00000250: c672 27bd 29fa edbb dc26 66ba a8c2 9a3c
00000260: 8a46 05bd 019d 233c 8121 243e 430e 03bc
00000270: 6486 a0bc 565e 083d 4e17 8bbd b09c f9bd
00000280: f127 76bd 6c65 d8bc bea3 483d c85a b73d
00000290: f85d 863d 323d 313c ac64 813b 141f 523d
000002a0: 5d52 abbd 9b01 433d 7b0a 45bc d0e4 fa3a
000002b0: 1e3d 02bd 426c 61bd ef1e 51bd 3fab bebd
000002c0: f24e 283d 038b 12bd 0ff7 3dbd 45ab f03c
000002d0: bfa1 25bd 6ed2 6c3d 807a afbb f274 073e
000002e0: 56e1 fc3c d3ee 80bd 9ab1 0a3e 3dae 0d3e
000002f0: cd04 62bd eda9 ed3d 2f19 b23b 6929 68be
00000300: e928 21be bbf5 703d 7b1f 303c 4f63 f2bd
00000310: 65dd 10be 70e2 c13d 16f1 2dbc 1aee e03d
00000320: 1434 5b3e 4770 993d 1575 073e c0b6 71bd
00000330: 9b0b 6a3e c015 823e ca4b a63c 6262 b2bd
00000340: ecbe 4a3c 4e3a abbb 0317 783d 6aa6 8dbd
00000350: d138 b33d fbc3 6d3e 90cf 0ebd f8f4 89bc
00000360: edd1 333d 7063 c23d 959f 80bb 1cb7 b83c
00000370: cde5 4dbd aeb6 6c3d 6746 213d e9b5 d43d
00000380: af4d e43d db7b 06be 0034 913d e1db 28bd
00000390: 725f f6bd c923 fa3d c75d 8c3c 54d6 80be
000003a0: 24ad 9cbd 52b1 17bd 0726 95bd 7c21 44bd
000003b0: a5f9 663d 89a3 36bd c589 2e3e 240b 1fbd
000003c0: 6721 023d 09b2 c53d dcfd d73d f7a3 b03c
000003d0: 128c a13c b362 58bc 273e e7bd c556 dc3d
000003e0: 1a05 0b3d 6b12 613e fa2b 32be 1aeb 503d
000003f0: 40a1 653c c598 f7bd a267 04bd 611b 473e

fc2.bias f4 [128]
0.03291186 0.08022485 0.0943413 -0.040364984 -0.021475397 -0.10830378 -0.043136787 -0.093902156
0.010025535 0.055035133 0.04968014 -0.030498121 -0.07712735 -0.06813917 0.005495335 0.030470075
0.06372256 -0.0050603524 0.042768206 -0.051624145 0.009626782 -0.069096155 -0.04501704 0.06896754
0.14463058 0.18176934 -0.04635313 0.095229216 -0.04521011 0.029873542 0.02672974 0.010253323
0.10131529 0.03788397 0.04921889 -0.036462575 -0.07173357 -0.04519651 -0.04383842 -0.054085884
-0.0858949 -0.011422653 0.035689738 -0.025156887 -0.0059979735 0.036995225 -0.069922574 0.020305386
-0.010250958 0.07986295 -0.054065287 -0.06014246 0.08687127 -0.07088545 0.060417965 -0.010483258
0.03770772 -0.0017676862 0.062296744 0.003443847 0.15655464 0.10529549 0.022069618 0.13911688
-0.055815015 0.034776118 -0.045134168 -0.045365848 0.08850471 0.103727914 0.033150684 -0.08044576
0.054268107 -0.07514841 0.013742034 -0.01216516 0.07561783 -0.04441376 -0.062544115 -0.10408988
0.041150827 -0.047401316 0.022474743 0.027235286 0.062247243 -0.008450436 -0.09607612 0.003423262
-0.0028133465 0.11731547 -0.06639231 -0.061422773 -0.117738456 -0.022453718 0.016510617 0.002087151
-0.09205848 -0.050600193 0.021429313 -0.040157754 0.012435451 -0.018552944 0.059280585 -0.08958259
-0.0336684 -0.08666695 -0.10874862 -0.05139107 0.061766192 -0.090783015 -0.06999088 0.031696193
0.039299265 -0.11264134 0.027536558 -0.007611895 0.0039496217 -0.08874833 -0.13817166 -0.017816797
-0.09061312 -0.036051936 0.03188658 -0.03506477 -0.027874354 0.030307757 0.023868818 -0.13395189
00000000: 96ce 063d ed4c a43d 0336 c13d c155 25bd
00000010: 2ced afbc 5fce ddbd 33b0 30bd c64f c0bd
00000020: 2442 243c 856c 613d 677d 4b3d 32d7 f9bc
00000030: f2f4 9dbd 8d8c 8bbd 3612 b43b 619c f93c
00000040: f980 823d 50d1 a5bb b72d 2f3d d773 53bd
00000050: a6b9 1d3c 4982 8dbd ca63 38bd db3e 8d3d
00000060: 0a1a 143e be21 3a3e c8dc 3dbd 8907 c33d
00000070: 3c2e 39bd 5cb9 f43c 54f8 da3c 8efd 273c
00000080: 647e cf3d 392c 1b3d bf99 493d c859 15bd
00000090: 0de9 92bd fa1f 39bd ea8f 33bd 2989 5dbd
000000a0: aae9 afbd 1426 3bbc 672f 123d d115 cebc
000000b0: a68a c4bb 4e88 173d 9133 8fbd 7b57 a63c
000000c0: a2f3 27bc 308f a33d 9073 5dbd f157 76bd
000000d0: 90e9 b13d 642c 91bd d478 773d f9c1 2bbc
000000e0: 6973 1a3d b5b1 e7ba df2a 7f3d 2ab2 613b
000000f0: dc4f 203e 29a5 d73d 58cb b43c a874 0e3e
00000100: 499e 64bd 6771 0e3d 9bde 38bd 8ad1 39bd
00000110: f541 b53d 4d6f d43d 03c9 073d bfc0 a4bd
00000120: 3c48 5e3d 69e7 99bd 4526 613c 6150 47bc
00000130: 85dd 9a3d 34eb 35bd 2117 80bd 132d d5bd
00000140: c58d 283d e227 42bd f41c b83c 891c df3c
00000150: f7f6 7e3d b373 0abc 8fc3 c4bd ce58 603b
00000160: 1f60 38bb 1843 f03d b1f8 87bd 7296 7bbd
00000170: dc20 f1bd dcf0 b7bc 4641 873c 95c8 083b
00000180: 2889 bcbd 2642 4fbd 878c af3c 757c 24bd
00000190: 10be 4b3c 58fc 97bc 33d0 723d 1477 b7bd
000001a0: e0e7 09bd 717e b1bd 99b7 debd 717f 52bd
000001b0: 8cfe 7c3d 72ec b9bd 6157 8fbd ded3 013d
000001c0: 44f8 203d 81b0 e6bd 5994 e13c 346d f9bb
000001d0: d46b 813b afc1 b5bd df7c 0dbe 88f4 91bc
000001e0: 5f93 b9bd 32ab 13bd 819b 023d 14a0 0fbd
000001f0: c258 e4bc f947 f83c 8a88 c33c af2a 09be

fc3.weight f4 [64, 128]
-0.084951535 -0.023144508 0.09218707 -0.051621407 0.06334875 0.01944296 0.008591298 -0.082043014
0.085183546 0.08882484 0.06067818 -0.07305225 -0.029273685 0.0025644214 0.038776256 0.015041195
0.028146176 -0.037948307 -0.060853355 -0.006463236 0.08805306 -0.02070149 -0.025542907 -0.0048690806
-0.13382328 -0.008622726 0.08554684 -0.2071444 -0.06395642 -0.043446597 -0.016016498 -0.07138991
-0.073483296 0.09383998 0.01176122 0.05167513 0.0061816648 0.06804886 0.005151849 -0.024119256
0.07233124 -0.07651077 -0.018694568 -0.04396252 -0.02237668 -0.038913872 -0.06970984 0.07070321
-0.075798415 0.18270542 0.07426152 -0.105702505 0.0033676287 0.04366404 0.21696827 -0.0048665777
-0.13646568 0.09660598 0.03443917 0.05978435 0.007966598 0.08226275 -0.06411715 -0.10779458
0.009546302 0.054406308 -0.046360373 -0.006228887 0.26463905 0.19239497 0.096646905 -0.026502747
0.0046013677 -0.060271822 0.07145799 0.038292862 0.17634918 0.0858118 -0.06642963 0.06588449
-0.03699074 0.018532995 0.014581952 -0.03392657 -0.042753033 0.1481202 -0.023478331 -0.11551305
-0.038213782 0.010731942 0.045692317 -0.058000963 0.040374875 0.05740248 0.2241934 0.0052228416
0.07044331 -0.0032244863 0.05397531 -0.050641038 0.05799513 0.11171947 0.11869769 0.08534599
-0.020682544 0.052285425 0.03267878 -0.08682349 0.0016099811 -0.1066373 0.07287209 -0.08250779
0.010376311 -0.13938762 -0.016002601 -0.017168684 0.016160546 -0.054642715 0.07682475 -0.056154944
0.08708293 0.077724904 -0.108016886 -0.015588046 0.16195835 0.12876768 -0.028769674 0.03883413
-0.0087722605 0.09946382 -0.023893064 -0.08457038 -0.06293203 -0.025179463 -0.002475248 -0.11764728
-0.10697843 0.07808075 -0.051717896 0.04920105 -0.1533868 -0.10774645 -0.033979557 -0.02625158
0.030939858 -0.03843459 -0.12872297 -0.07415721 0.004222808 0.0016307458 -0.065138 -0.05657436
-0.0741938 0.1428292 -0.08430913 0.047266882 0.002124697 0.09936162 -0.069070034 -0.028090093
0.051335778 0.06965109 0.028595574 -0.023624334 0.085162185 0.045764226 0.03864479 0.013896313
-0.015816083 0.080698304 -0.04240784 -0.08210272 0.055402257 -0.08506903 -0.016859546 0.02442645
-0.057750892 -0.06375235 -0.05882501 0.05975482 -0.0072308285 0.06406622 -0.09574938 0.032685734
-0.024642823 -0.11019421 0.02235511 0.112435214 0.04611904 -0.03928458 -0.06369992 0.035559442
-0.064860076 -0.053947564 -0.028748749 0.018435923 -0.18628693 0.048612177 0.02865691 0.043769266
-0.0024802217 -0.082349494 0.043354437 0.058492385 0.01123814 0.04133082 -0.061959244 0.046736214
-0.043091137 -0.07474442 0.07783945 -0.041366775 -0.03488204 -0.14870629 0.04163325 -0.028067201
0.009207708 -0.022025192 0.022018291 -0.025482113 0.03268581 0.0077226157 -0.03926318 -0.05482811
-0.033926137 0.031211637 -0.043694846 0.019893453 0.065914206 -0.040546548 0.04621751 -0.13287467
-0.015645472 -0.05572239 -0.08215299 0.044469174 0.033011056 -0.0143767325 -0.09924325 -0.015275829
-0.08049167 0.049836256 0.016813295 0.0185656 0.053955715 -0.053270318 -0.0050764857 -0.07755769
0.020706248 0.0029185195 0.08259246 0.08926614 -0.061575733 -0.027568864 -0.0055506015 -0.014557201
00000000: 12fb adbd 8d99 bdbc 93cc bc3d f870 53bd
00000010: fdbc 813d d846 9f3c 84c2 0c3c 2b06 a8bd
00000020: b674 ae3d cce9 b53d af89 783d 6b9c 95bd
00000030: 5ecf efbc da0f 283b dad3 1e3d 586f 763c
00000040: cf92 e63c af6f 1bbd 5e41 79bd 8ec9 d3bb
00000050: 2a55 b43d 2c96 a9bc 5c3f d1bc cf8c 9fbb
00000060: f808 09be 5646 0dbc 2f33 af3d a91d 54be
00000070: 95fb 82bd 0ff5 31bd 0835 83bc e034 92bd
00000080: 697e 96bd 2d2f c03d 22b2 403c 4da9 533d
00000090: 908f ca3b 335d 8b3d d7d0 a83b bf95 c5bc
000000a0: 6722 943d aeb1 9cbd 5a25 99bc 0b12 34bd
000000b0: 4d4f b7bc 2764 1fbd 08c4 8ebd d8cc 903d
000000c0: 333c 9bbd 2117 3b3e 6c16 983d 8e7a d8bd
000000d0: 6fb3 5c3b 10d9 323d ee2c 5e3e d077 9fbb
000000e0: a9bd 0bbe 5bd9 c53d 1610 0d3d 6fe0 743d
000000f0: 5586 023c 5f79 a83d da4f 83bd 68c3 dcbd
00000100: 1868 1c3c 26d9 5e3d 60e4 3dbd b11b ccbb
00000110: c57e 873e 3003 453e d0ee c53d 4a1c d9bc
00000120: 12c7 963b 96df 76bd 9158 923d fad8 1c3d
00000130: e194 343e 19be af3d 420c 88bd 73ee 863d
00000140: 9a83 17bd 82d2 973c 24e9 6e3c 96f6 0abd
00000150: ce1d 2fbd d2ac 173e a155 c0bc 1b92 ecbd
00000160: 0e86 1cbd 07d5 2f3c de27 3b3d 6b92 6dbd
00000170: 2060 253d dd1e 6b3d f492 653e 5f24 ab3b
00000180: 9544 903d e751 53bb 3715 5d3d fa6c 4fbd
00000190: 4d8c 6d3d 2dcd e43d c617 f33d e1c9 ae3d
000001a0: 706e a9bc 3e29 563d 2fda 053d 84d0 b1bd
000001b0: 0006 d33a a864 dabd f63d 953d d8f9 a8bd
000001c0: 6701 2a3c a1bb 0ebe e317 83bc 57a5 8cbc
000001d0: 1f63 843c 0ad1 5fbd 4b56 9d3d ba02 66bd
000001e0: 8958 b23d 3c2e 9f3d f537 ddbd 0165 7fbc
000001f0: 69d8 253e addb 033e 61ae ebbc 8910 1f3d
00000200: 87b9 0fbc b0b3 cb3d 63bb c3bc 3c33 adbd
00000210: 82e2 80bd 2945 cebc c537 22bb 0ff1 f0bd
00000220: 8217 dbbd cde8 9f3d 25d6 53bd 0a87 493d
00000230: 6e11 1dbe 2caa dcbd 262e 0bbd 8e0d d7bc
00000240: 9675 fd3c 976d 1dbd f4cf 03be bcdf 97bd
00000250: 7b5f 8a3b c0be d53a 1267 85bd 84ba 67bd
00000260: ebf2 97bd d141 123e 44aa acbd eb9a 413d
00000270: 803e 0b3b 1b7e cb3d 9774 8dbd 321d e6bc
00000280: 7745 523d 3ba5 8e3d 4441 ea3c d287 c1bc
00000290: 8369 ae3d 4573 3b3d 004a 1e3d 5cad 633c
000002a0: bb90 81bc 2745 a53d d8b3 2dbd 7925 a8bd
000002b0: 7aed 623d ac38 aebd 081d 8abc fa19 c83c
000002c0: 338c 6cbd 9890 82bd 7ef2 70bd 78c1 743d
000002d0: 96f0 ecbb 2635 833d 4018 c4bd 7ae1 053d
000002e0: bfdf c9bc 81ad e1bd 1022 b73c 6f44 e63d
000002f0: 52e7 3c3d dee8 20bd 1b75 82bd c7a6 113d
00000300: 5cd5 84bd 1ff8 5cbd 7f82 ebbc ef06 973c
00000310: 00c2 3ebe 901d 473d e5c1 ea3c 6747 333d
00000320: 378b 22bb daa6 a8bd 6c94 313d b695 6f3d
00000330: 2d20 383c 824a 293d fac8 7dbd 796e 3f3d
00000340: 5580 30bd 9a13 99bd 4a6a 9f3d 3570 29bd
00000350: 78e0 0ebd 7646 18be a087 2a3d 30ed e5bc
00000360: eddb 163c 2d6e b4bc b45f b43c ddbf d0bc
00000370: 8ee1 053d ff0d fd3b 6ed2 20bd 7193 60bd
00000380: 22f6 0abd 8caf ff3c 5ef9 32bd 98f7 a23c
00000390: 07fe 863d 2314 26bd 924e 3d3d 4c10 08be
000003a0: ef2a 80bc 293d 64bd d43f a8bd 4f25 363d
000003b0: 9a36 073d 638c 6bbc 0c40 cbbd 7847 7abc
000003c0: d1d8 a4bd 1a21 4c3d 09bc 893c e316 983c
000003d0: ab00 5d3d fa31 5abd a658 a6bb 91d6 9ebd
000003e0: 26a0 a93c a244 3f3b 3c26 a93d 2ad1 b63d
000003f0: d636 7cbd 19d8 e1bc d2e1 b5bb 5481 6ebc

fc3.bias f4 [64]
-0.025199056 0.080892354 0.01597959 -0.116414584 -0.06600902 0.0058159693 0.108553305 -0.0757382
0.07780964 -0.07248815 0.027758379 0.0020031796 0.027086504 -0.0112004755 -0.07948857 -0.056178793
0.07885046 -0.06037803 -0.09137927 -0.096688114 -0.108338505 0.09747777 0.009009665 0.035987064
-0.038134716 -0.124249026 0.01033785 -0.077551946 0.039122574 0.086663276 -0.14813495 -0.05135425
0.026456341 0.035679508 -0.0014914448 -0.06083468 -0.028119795 -0.014771262 -0.12502524 0.034816805
0.11527922 0.010673196 -0.056651767 0.024758171 -0.008450244 -0.09074476 -0.017927764 0.019622987
0.06440263 0.029499099 0.030275123 0.08082805 -0.025033623 -0.05959359 0.0080504995 0.037217855
-0.08938279 0.048097137 -0.023471868 0.02543203 0.042940594 0.040759783 0.06352669 -0.14164303
00000000: 406e cebc e4aa a53d a1e7 823c c56a eebd
00000010: bd2f 87bd e393 be3b 3251 de3d a11c 9bbd
00000020: a95a 9f3d ab74 94bd 8a65 e33c c747 033b
00000030: 84e4 dd3c 3382 37bc e7ca a2bd bc1b 66bd
00000040: 5a7c a13d f44e 77bd 0e25 bbbd 6b04 c6bd
00000050: 94e0 ddbd 6da2 c73d 469d 133c 2c67 133d
00000060: 2633 1cbd 4676 febd 1660 293c 8ed3 9ebd
00000070: fe3e 203d 847c b13d b0b0 17be d658 52bd
00000080: f8ba d83c ad24 123d 957c c3ba c92d 79bd
00000090: 7c5b e6bc 2a03 72bc 9e06 00be 119c 0e3d
000000a0: 8317 ec3d a1de 2e3c af0b 68bd a6d1 ca3c
000000b0: e472 0abc 64d8 b9bd 3fdd 92bc 63c0 a03c
000000c0: 87e5 833d 18a8 f13c 8903 f83c 2d89 a53d
000000d0: 5013 cdbc 6918 74bd 3ee6 033c c071 183d
000000e0: 530e b7bd 8101 453d 1348 c0bc d556 d03c
000000f0: 7ae2 2f3d bbf3 263d 481a 823d df0a 11be

fc4.weight f4 [4, 64]
0.11819587 -0.064796895 0.07703159 -0.044038486 -0.036592208 0.1575856 0.04356427 0.113192275
0.060366154 -0.16803758 0.06467817 0.05312912 -0.09213111 0.052643165 -0.07273252 -0.03957348
0.046183933 -0.1395987 -0.03211603 -0.09132524 -0.13192187 0.06864761 0.030153645 0.0013602778
-0.025546577 -0.062722564 0.009037205 0.0005598071 0.0790505 0.030794038 -0.11573991 -0.030617855
0.045078102 -0.042659074 -0.05947616 0.009091111 0.01771996 0.01706362 -0.19119623 -0.0033147295
0.19345178 0.05360696 -0.10693497 -0.02677564 -0.1011012 -0.05762434 -0.042833976 -0.114236064
0.09695666 -0.21642038 0.20113371 -0.08355025 -0.056704815 -0.07752839 -0.063782126 -0.11107771
-0.050905798 0.11350185 0.05373613 0.071751855 -0.10045215 0.026299324 0.13613138 -0.0016535003
-0.15908644 -0.018668335 -0.10492613 -0.08482077 0.044495836 -0.24684455 -0.21640609 0.012416536
-0.19999076 0.11742582 -0.04097862 -0.09057468 0.011848084 0.09487899 -0.0801526 0.034570355
-0.28137386 0.036878776 -0.04722571 -0.035343718 -0.1040435 0.053441163 -0.071808696 0.042507872
-0.078576796 -0.095447995 -0.052690987 0.07044908 -0.14282945 -0.16383386 -0.036387417 -0.05490623
0.072201036 0.06506983 -0.2622512 0.12343768 -0.06911916 0.07274498 -0.37934938 0.012257529
-0.12250336 -0.28414738 0.019120704 -0.082842164 -0.027533576 0.12381209 0.17746569 -0.047234107
-0.026454328 -0.3077137 0.042806067 -0.24758668 -0.05211669 -0.06356488 0.017864421 -0.06316882
0.0068051657 0.06783544 -0.10450551 -0.024171708 -0.2522216 -0.16336969 0.022596307 -0.014632837
0.21160059 -0.08660791 -0.13240832 -0.022873336 0.016304152 0.11855148 -0.035660777 -0.06052918
0.022186104 -0.06067816 0.059857458 0.047434323 0.25945526 -0.08879569 -0.035799794 -0.028109686
0.07092732 0.21769416 -0.0151032 -0.1157114 -0.08077519 -0.14858699 0.2970211 -0.060377423
0.019682951 -0.09066009 -0.09086497 -0.042461127 -0.089807145 -0.10783057 0.30574673 -0.115087196
-0.015447284 -0.1070128 0.07940069 0.07420783 -0.035015967 0.10281643 0.24524331 0.006362142
-0.06385536 0.12274293 0.2673058 -0.2323951 -0.07239608 -0.11164919 -0.16361266 0.08667726
0.17527503 0.001487087 -0.10854284 0.092214815 -0.06631396 0.050158534 -0.11514336 0.048713148
0.21640883 -0.24860916 -0.006911687 -0.09103573 0.18359546 0.1473454 0.2640434 -0.016183207
-0.26746628 0.118575886 0.097481705 0.040033247 -0.04099945 0.0011498147 -0.096588746 -0.026098434
0.0784292 0.056810297 -0.1030768 -0.10928306 -0.26934195 -0.10951171 -0.02059605 -0.09326975
0.18024603 -0.3039382 0.07461117 -0.064533755 -0.0767542 0.063688405 -0.06544075 -0.0548918
0.01685555 -0.0672081 -0.09714537 -0.094442844 0.06755738 0.18868832 -0.12330935 0.0054228744
-0.058876276 -0.1200771 0.20652616 -0.08866587 -0.012055223 -0.009620506 -0.11291531 0.0039892476
0.02031059 -0.13308536 -0.25575808 0.15458693 -0.080710895 -0.16834861 -0.009098134 -0.10953029
-0.14966285 0.00517926 0.24811299 0.13909642 -0.04980998 0.07903253 -0.09341884 -0.04013518
-0.33207777 0.16971579 0.23583777 -0.065517 -0.10043489 -0.22426513 -0.07137001 0.012148299
00000000: ad10 f23d 3cb4 84bd bdc2 9d3d b361 34bd
00000010: b6e1 15bd 1f5e 213e 7370 323d 5ad1 e73d
00000020: 8042 773d 0b12 2cbe fd75 843d ec9d 593d
00000030: 3caf bcbd 5ca0 573d caf4 94bd cd17 22bd
00000040: 5d2b 3d3d f6f2 0ebe 198c 03bd ba08 bbbd
00000050: 8716 07be 1e97 8c3d c704 f73c 594b b23a
00000060: 0e47 d1bc b074 80bd c910 143c 05c0 123a
00000070: 3be5 a13d c743 fc3c 0c09 edbd 4cd2 fabc
00000080: d1a3 383d 48bb 2ebd 469d 73bd e2f2 143c
00000090: 7329 913c 01c9 8b3c f2c8 43be ef3b 59bb
000000a0: 3918 463e f992 5b3d b900 dbbd 9658 dbbc
000000b0: 250e cfbd 8007 6cbd ae72 2fbd 99f4 e9bd
000000c0: 3791 c63d 4e9d 5dbe fff5 4d3e 651c abbd
000000d0: 4f43 68bd 34c7 9ebd 34a0 82bd b67c e3bd
000000e0: 9982 50bd a873 e83d 6b1a 5c3d a3f2 923d
000000f0: dbb9 cdbd ae71 d73c 0666 0b3e 43ba d8ba
00000100: 8ee7 22be 56ee 98bc 83e3 d6bd 83b6 adbd
00000110: 4441 363d d1c4 7cbe 8f99 5dbe ba6e 4b3c
00000120: 61ca 4cbe f37c f03d 33d9 27bd 387f b9bd
00000130: 771e 423c ea4f c23d 0c27 a4bd a599 0d3d
00000140: 3c10 90be 330e 173d bf6f 41bd 93c4 10bd
00000150: c214 d5bd 1fe5 5a3d 7010 93bd bc1c 2e3d
00000160: dfec a0bd 3d7a c3bd 81d2 57bd 9b47 903d
00000170: e241 12be 10c4 27be f90a 15bd 5be5 60bd
00000180: 23de 933d 5543 853d ca45 86be e5cc fc3d
00000190: 598e 8dbd 52fb 943d 153a c2be ced3 483c
000001a0: 0be3 fabd c47b 91be 06a3 9c3c 27a9 a9bd
000001b0: 188e e1bc 3191 fd3d 91b9 353e 8d78 41bd
000001c0: bfb6 d8bc a68c 9dbe 6a55 2f3d 5d87 7dbe
000001d0: 4f78 55bd 4e2e 82bd 6858 923c a85e 81bd
000001e0: defd de3b 4fed 8a3d fc06 d6bd bf03 c6bc
000001f0: 3123 81be 624a 27be e41b b93c 91be 6fbc
00000200: d3ad 583e 7d5f b1bd 0c96 07be dd60 bbbc
00000210: 4990 853c 1ecb f23d 0911 12bd 72ed 77bd
00000220: a2bf b53c aa89 78bd 182d 753d 7e4a 423d
00000230: 52d7 843e 84da b5bd cea2 12bd 4946 e6bc
00000240: 5842 913d 38eb 5e3e 6a73 77bc 19fa ecbd
00000250: 766d a5bd 3027 18be 2613 983e 514e 77bd
00000260: 243e a13c ffab b9bd 6a17 babd b8eb 2dbd
00000270: cfec b7bd 46d6 dcbd d68a 9c3e d6b2 ebbd
00000280: 9b16 7dbc 8729 dbbd d49c a23d 46fa 973d
00000290: e76c 0fbd 6c91 d23d 1021 7b3e 8479 d03b
000002a0: 99c6 82bd a560 fb3d 4edc 883e fbf8 6dbe
000002b0: 6544 94bd 55a8 e4bd 148a 27be d983 b13d
000002c0: 4c7b 333e 5cea c23a b54b debd 1fdb bc3d
000002d0: 9dcf 87bd 0973 4d3d 48d0 ebbd 7087 473d
000002e0: 479a 5d3e 6693 7ebe 6f7b e2bb f170 babd
000002f0: 7300 3c3e b6e1 163e b230 873e a592 84bc
00000300: 57f1 88be ead7 f23d 7da4 c73d e7f9 233d
00000310: 0aef 27bd 61b5 963a 52d0 c5bd 62cc d5bc
00000320: 7d9f a03d eab1 683d ee19 d3bd cccf dfbd
00000330: 30e7 89be ad47 e0bd 0cb9 a8bc 3604 bfbd
00000340: 6a92 383e ca9d 9bbe becd 983d 462a 84bd
00000350: 4e31 9dbd 116f 823d cd05 86bd 39d6 60bd
00000360: a714 8a3c 66a4 89bd 27f4 c6bd 406b c1bd
00000370: 865b 8a3d 8337 413e 9d89 fcbd 5eb2 b13b
00000380: 4028 71bd fcea f5bd 987b 533e 7496 b5bd
00000390: 4583 45bc 549f 1dbc 2440 e7bd 3cb8 823b
000003a0: 6562 a63c 8747 08be b9f2 82be 094c 1e3e
000003b0: c14b a5bd 9463 2cbe 5710 15bc 6b51 e0bd
000003c0: 3841 19be c8b6 a93b 5511 7e3e 4b6f 0e3e
000003d0: 8d05 4cbd cfdb a13d 6052 bfbd c964 24bd
000003e0: 1906 aabe fac9 2d3e 757f 713e c72d 86bd
000003f0: cfb0 cdbd c2a5 65be 712a 92bd a909 473c

fc4.bias f4 [4]
-0.0055364687 -0.21318522 0.090328306 -0.046187654
00000000: 446b b5bb 3a4d 5abe 0cfe b83d 442f 3dbd
