saves/latest_model_time.pth (torch, 107353 bytes, 8 tensors)

fc1.weight f4 [128, 6]
-0.10847475 0.44116482 -0.33312482 0.4415103 -0.105455816 -0.19679357 -0.08136156 -0.05888325
-0.0641301 0.044079453 -0.32109702 0.29164863 -0.27206165 -0.21267436 0.27417135 -0.19691765
-0.28540656 0.34467852 0.19526291 0.3854103 -0.18308444 0.10845353 -0.19466652 0.10729102
0.26923162 -0.07343773 0.33748084 -0.29494625 -0.009006204 -0.075205415 -0.06579757 0.2915977
-0.2249381 0.39018768 -0.035594966 0.12298459 0.0065981736 -0.0031750784 0.10087729 -0.24946074
0.04188133 0.03031313 -0.40923733 -0.21824816 0.3522613 0.41410244 0.46830398 -0.3107447
0.08501047 -0.028208237 0.28148222 -0.14537083 0.18273568 0.15716603 -0.3998116 0.32815644
-0.40626073 -0.296303 -0.35899276 0.2651105 0.18357337 0.3350146 -0.15289475 0.3383983
0.16866627 0.12543069 0.36818755 -0.09365435 -0.057898656 -0.30506065 -0.3353701 -0.2642508
-0.20939358 -0.23259152 0.13858308 0.5586565 0.06300562 0.34554303 -0.009117887 0.020508967
-0.16716705 0.025336463 0.12523235 -0.08174605 0.19219519 0.18846704 0.27533197 -0.23675497
0.0745025 0.046098538 -0.04379582 0.37258157 -0.41440803 0.24704085 -0.054761425 -0.26739022
0.25799736 0.11742451 -0.24125938 -0.2968059 0.26452535 -0.3015551 0.115120895 -0.29393166
-0.24302998 0.06457266 0.18727495 0.12995753 0.18718295 -0.12484901 0.35519785 0.25550312
0.30894122 0.29455313 -0.08107421 0.36336592 -0.23891057 0.17008081 -0.17873047 -0.11451332
-0.11330255 -0.08867027 -0.30587655 0.085623875 -0.059168626 -0.22558488 0.28603438 -0.0005981419
-0.5453476 0.037692003 -0.17886345 0.14234607 0.01812839 -0.3166004 0.056892995 -0.37467378
-0.22372591 -0.009232783 0.29732037 0.26120043 -0.48667935 0.07445237 0.17018594 0.23844267
-0.43100008 0.32345968 0.318006 0.0011322838 0.010010127 0.18762404 0.12799807 0.3971538
-0.390935 -0.011286769 -0.14777784 -0.31115484 -0.041759644 0.3828827 0.15158263 0.2491685
0.03033705 0.022369513 -0.28745848 0.1972383 -0.36261645 0.41862595 0.4389606 -0.0051405905
0.198025 0.028238632 0.42004204 -0.42964968 0.22892857 -0.23181435 0.34613484 0.2994619
0.2655784 -0.38990596 -0.050515026 -0.13895366 -0.17790769 0.1184422 -0.2077412 -0.3018846
-0.021320246 -0.43627244 0.39475986 -0.30681983 0.07527297 -0.44618943 -0.14339638 -0.22237626
-0.37874946 -0.15985921 -0.21133044 0.162438 -0.349499 0.014129376 -0.28799495 -0.22133908
-0.19797601 0.122030556 -0.264246 -0.3145879 -0.26178592 -0.40639415 -0.07996687 -0.3155466
-0.25368097 0.12747598 0.33900946 -0.3904261 0.016435405 0.35763612 -0.20856053 -0.20307194
0.11756339 0.1728868 0.09390734 -0.47764918 0.34525445 -0.23578833 -0.07657012 -0.110145934
0.5157693 0.11337774 0.10076184 0.36364272 -0.4720959 0.17079313 0.35151672 0.35363665
0.28300044 -0.32647115 0.1060477 0.023257459 0.40870497 -0.087617144 -0.16798729 0.15703653
-0.26524907 -0.36156404 0.1344676 -0.36943763 -0.29559377 -0.39900494 0.24395087 0.03332409
-0.3510762 0.29045883 -0.17960778 -0.1748492 0.23669016 0.28055394 -0.4161581 -0.3384259
00000000: 0228 debd 5be0 e13e 568f aabe a30d e23e
00000010: 38f9 d7bd 4184 49be e4a0 a6bd 902f 71bd
00000020: a456 83bd a88c 343d d466 a4be f852 953e
00000030: aa4b 8bbe 4fc7 59be 3060 8c3e c8a4 49be
00000040: cf20 92be b479 b03e 00f3 473e 8054 c53e
00000050: 7d7a 3bbe e21c de3d a956 47be 65bb db3d
00000060: bad8 893e 8566 96bd 4aca ac3e 3203 97be
00000070: c28e 13bc 4c05 9abd e0c0 86bd 4b4c 953e
00000080: 2c56 66be aec6 c73e 07cc 11bd 58df fb3d
00000090: 7e35 d83b fa14 50bb c198 ce3d a372 7fbe
000000a0: c28b 2b3d 3e53 f83c 8e87 d1be 727c 5fbe
000000b0: 985b b43e 3c05 d43e 8ac5 ef3e ee19 9fbe
000000c0: f819 ae3d f614 e7bc 701e 903e 17dc 14be
000000d0: 101f 3b3e 22f0 203e 1bb4 ccbe 1f04 a83e
000000e0: 6801 d0be 07b5 97be e6cd b7be 90bc 873e
000000f0: a8fa 3b3e 0987 ab3e 7190 1cbe 8b42 ad3e
00000100: dab6 2c3e e770 003e 1483 bc3e dacd bfbd
00000110: 2427 6dbd e930 9cbe a1b5 abbe e14b 87be
00000120: 456b 56be 792c 6ebe b9e8 0d3e 1d04 0f3f
00000130: 1709 813d 04eb b03e 3163 15bc 6c02 a83c
00000140: d72d 2bbe 6a8e cf3c e93c 003e 796a a7bd
00000150: d1ce 443e 81fd 403e 50f8 8c3e e56f 72be
00000160: c494 983d d2d1 3c3d 3f63 33bd 03c3 be3e
00000170: 4a2d d4be 47f8 7c3e 844d 60bd 5fe7 88be
00000180: 3b18 843e 437c f03d b30c 77be f1f6 97be
00000190: de6f 873e 6e65 9abe 81c4 eb3d 367e 96be
000001a0: dadc 78be ac3e 843d 01c5 3f3e 9613 053e
000001b0: e3ac 3f3e d6b0 ffbd 7edc b53e 4ed1 823e
000001c0: 8b2d 9e3e abcf 963e 3c0a a6bd 190b ba3e
000001d0: f9a4 74be aa29 2e3e 1f05 37be f685 eabd
000001e0: 2b0b e8bd c298 b5bd da9b 9cbe 925b af3d
000001f0: cd5a 72bd b9ff 66be 1973 923e a0cc 1cba
00000200: e69b 0bbf ee62 1a3d fb27 37be 2bc3 113e
00000210: fd81 943c 7319 a2be a108 693d 3ed5 bfbe
00000220: 6818 65be 1945 17bc 603a 983e 10bc 853e
00000230: 092e f9be 7c7a 983d 3945 2e3e 512a 743e
00000240: 0bac dcbe 829c a53e afd1 a23e 2469 943a
00000250: 8401 243c 8420 403e ed11 033e be57 cb3e
00000260: a228 c8be 24ec 38bc 1353 17be b04f 9fbe
00000270: 290c 2bbd 3409 c43e 7a38 1b3e 0726 7f3e
00000280: 6885 f83c 4540 b73c c22d 93be d6f8 493e
00000290: dda8 b9be 2456 d63e 72bf e03e 6672 a8bb
000002a0: 11c7 4a3e b454 e73c c00f d73e 0bfb dbbe
000002b0: 406c 6a3e be60 6dbe 9638 b13e 1253 993e
000002c0: e4f9 873e c1a1 c7be d8e8 4ebd de49 0ebe
000002d0: 6f2d 36be d391 f23d 1cba 54be 9e90 9abe
000002e0: cca7 aebc 1a5f dfbe f71d ca3e 7d17 9dbe
000002f0: b728 9a3d f172 e4be 80d6 12be 9ab6 63be
00000300: 73eb c1be 22b2 23be 0267 58be 2656 263e
00000310: 88f1 b2be e67e 673c 1374 93be b6a6 62be
00000320: 39ba 4abe 28eb f93d 404b 87be aa11 a1be
00000330: ce08 86be e512 d0be acc5 a3bd 538f a1be
00000340: 79e2 81be 1089 023e a692 ad3e eee5 c7be
00000350: 8ba3 863c 151c b73e e490 55be 17f2 4fbe
00000360: 13c5 f03d 3d09 313e 7e52 c03d 6f8e f4be
00000370: 31c5 b03e 7f72 71be ccd0 9cbd 3194 e1bd
00000380: 7509 043f 9732 e83d 395c ce3d 612f ba3e
00000390: 8eb6 f1be 65e4 2e3e 00fa b33e dd0f b53e
000003a0: 6fe5 903e 3a27 a7be 892f d93d 6d86 be3c
000003b0: c741 d13e 9e70 b3bd dc04 2cbe 2fce 203e
000003c0: bace 87be ec1e b9be e0b1 093e ee26 bdbe
000003d0: 1158 97be 604a ccbe 42ce 793e d77e 083d
000003e0: 42c0 b3be 05b7 943e 1aeb 37be ab0b 33be
000003f0: e85e 723e c4a4 8f3e ad12 d5be 2946 adbe

fc1.bias f4 [128]
-0.19157198 -0.22903454 0.37765503 -0.0202634 -0.40088308 0.22300936 -0.19511425 0.28541037
-0.009501385 -0.32992536 -0.27829295 -0.14552866 -0.15368117 0.07968393 -0.2894059 0.41111034
0.2081472 0.12094507 0.24945922 0.54424673 -0.20708516 0.22625281 -0.08869481 -0.35413086
-0.25807276 0.08901334 0.40157858 0.12008332 0.36548743 0.050551236 -0.02981345 0.18247625
0.112783834 -0.21770366 -0.18568417 0.33531034 0.2484292 0.13006969 -0.07348959 -0.24192068
-0.2523005 0.3152701 -0.49986038 0.19143145 -0.306399 -0.15402381 -0.3495099 -0.18416373
-0.3804728 -0.25145242 -0.1642676 -0.48654756 0.38599765 0.041929007 -0.3065291 -0.48316714
-0.1807433 -0.51251024 -0.10873927 0.35753587 -0.1673404 0.42655048 -0.20909292 0.07332733
0.023146044 0.24048178 0.3933492 -0.26600158 0.0356033 0.32833263 -0.23119 0.19774666
0.15902592 -0.09279625 0.33891538 -0.40049112 0.1592248 0.30618623 0.16881055 0.14304455
0.17274848 0.2374238 -0.19178054 -0.12886944 -0.38576266 0.04971467 -0.15193547 0.25981396
0.21122082 0.027856223 0.3563041 -0.18776484 0.1440537 0.32131502 -0.41843727 0.16469966
-0.024186293 0.19228917 -0.39485136 -0.37468916 0.27560082 0.25673404 0.10383168 -0.11780802
0.09295851 -0.5398874 -0.010817288 0.11679999 0.16214053 -0.018144276 0.15531388 -0.0086114835
0.41111648 -0.40805498 -0.29374036 -0.16914295 -0.17469306 0.054848354 -0.18982679 0.30798772
0.099334285 -0.2054375 -0.3758567 0.0930252 0.14972253 0.18293546 0.05358293 0.34108627
00000000: 722b 44be 0888 6abe 005c c13e 6eff a5bc
00000010: 8c40 cdbe 915c 643e 08cc 47be 4f21 923e
00000020: b2ab 1bbc faeb a8be 6a7c 8ebe 7705 15be
00000030: 995e 1dbe 5431 a33d 032d 94be 0e7d d23e
00000040: 8a24 553e 0db2 f73d 3d72 7f3e c153 0b3f
00000050: 220e 54be d1ae 673e a0a5 b5bd a450 b5be
00000060: 1d22 84be a04c b63d b59b cd3e 3eee f53d
00000070: 2b21 bb3e d00e 4f3d 563b f4bc 0edb 3a3e
00000080: 36fb e63d b5ed 5ebe fe23 3ebe ccad ab3e
00000090: 3964 7e3e fd30 053e b681 96bd 0eba 77be
000000a0: 882d 81be 156b a13e b3ed ffbe 9b06 443e
000000b0: 54e0 9cbe 6bb8 1dbe f6f2 b2be 6b95 3cbe
000000c0: 55cd c2be 5fbe 80be c435 28be c31c f9be
000000d0: 7ca1 c53e c0bd 2b3d 62f1 9cbe af61 f7be
000000e0: c614 39be df33 03bf b2b2 debd f10e b73e
000000f0: 485b 2bbe d364 da3e 741c 56be a42c 963d
00000100: c69c bd3c db40 763e 1165 c93e 5c31 88be
00000110: c4d4 113d 371b a83e 12bd 6cbe 1a7e 4a3e
00000120: b1d7 223e f60b bebd 5186 ad3e 2c0d cdbe
00000130: d30b 233e 71c4 9c3e acdc 2c3e 457a 123e
00000140: fae4 303e 3a1f 733e 1e62 44be 5af6 03be
00000150: af82 c5be 9ca1 4b3d f994 1bbe 5606 853e
00000160: 454a 583e bc32 e43c 7e6d b63e 6d45 40be
00000170: d082 133e 6783 a43e 693d d6be 07a7 283e
00000180: 5522 c6bc 74e7 443e f529 cabe 42d7 bfbe
00000190: 8d1b 8d3e a572 833e b4a5 d43d 5545 f1bd
000001a0: 0861 be3d 1036 0abf ff3a 31bc d534 ef3d
000001b0: 2b08 263e 4ea3 94bc 9a0a 1f3e 2e17 0dbc
000001c0: dc7d d23e 95ec d0be 2365 96be cf33 2dbe
000001d0: bde2 32be aba8 603d f461 42be 91b0 9d3e
000001e0: c66f cb3d 355e 52be 4a70 c0be ff83 be3d
000001f0: dd50 193e 6f53 3b3e c679 5b3d dca2 ae3e

fc2.weight f4 [128, 128]
0.048453078 0.057119273 -0.06678793 -0.12156659 0.03492943 -0.042861205 -0.07760893 0.024657613
-0.0036014016 0.06800747 0.0152935535 -0.038916297 0.15453053 0.00785335 0.038489077 -0.092189446
-0.06716518 0.08864424 -0.040717673 -0.077325545 -0.024058083 0.019259008 0.094958305 -0.027699163
0.15373927 -0.0414864 -0.008325631 0.15970717 -0.04022662 -0.073677346 0.09434643 -0.08661999
0.06281444 -0.021242246 0.075996585 0.020650294 -0.02804079 -0.052124128 0.16304982 -0.083893016
0.07815053 -0.03018108 0.033890355 0.04168273 0.036480594 0.055783667 0.07107706 0.21345
0.031646337 0.03743757 -0.06669105 -0.06079624 0.0752452 0.000577285 0.06878912 -0.02529693
0.04444446 -0.007794579 0.07437144 0.0036086186 -0.056686483 0.14116405 -0.023479443 -0.056354214
-0.091612995 -0.012492354 0.029415783 0.16204767 0.009117183 0.051689684 -0.056295633 0.046449944
-0.022610487 -0.032489095 0.05584668 0.0717167 0.033969533 0.030695934 0.0126234805 -0.09258432
0.018425709 -0.006769542 0.08639928 -0.04517544 0.049118057 -0.01896372 0.058834616 0.013681242
0.05670102 -0.042516008 0.114538416 0.04754572 0.14089742 0.087315224 0.010943407 0.0015941228
0.038327202 -0.07390491 0.09355722 -0.05361353 -0.059280176 0.105220936 0.06099927 -0.04592056
-0.050235398 -0.035987616 -0.07449827 0.0033888556 -0.002947329 -0.1350441 -0.059593223 -0.046493366
0.009968093 0.06097102 0.03676916 -0.06852496 0.05629845 0.018296743 0.099092685 -0.02959656
-0.055193875 0.1610333 0.05152623 0.014559515 -0.016777044 0.015808882 -0.05629088 -0.07277663
-0.04537147 -0.04906304 0.13659792 0.059177868 0.027912024 0.015699055 -0.13299158 0.17745319
0.029984234 -0.065432824 0.004238467 -0.060864307 0.051653057 -0.06938255 -0.026009269 -0.10323668
-0.005563407 -0.015205991 0.11122993 0.017004423 -0.04088094 -0.0025897094 -0.0008779594 0.014688661
-0.05473591 0.004165488 0.17029643 -0.039175812 -0.009781196 0.041154888 -0.067915544 -0.116185136
-0.07848922 -0.02641555 0.04898428 0.098469414 0.07644527 0.01822866 -0.02930486 0.0029737272
-0.08365319 0.060314197 -0.0120264245 -0.0018173567 -0.033202786 -0.055034883 -0.05105489 -0.11207532
0.041067306 -0.062891774 -0.04637819 0.029378543 -0.026387919 0.06608062 -0.0053551793 0.13228205
0.03876424 -0.06295552 0.14008868 0.15141122 -0.05518036 0.12605287 0.008881208 -0.21541393
-0.1620517 0.06980853 0.020447979 -0.164351 -0.12042943 0.0973011 -0.010616561 0.123346254
0.21873522 0.07946195 0.14548345 -0.056272574 0.23433132 0.26139352 0.017840534 -0.08385039
0.019439468 -0.0033563357 0.052632246 -0.07710716 0.08751071 0.23492843 -0.034865916 -0.07013155
0.04916392 0.10128957 0.0018516813 0.02254825 -0.070912 0.07065883 0.009796367 0.10958714
0.088862196 -0.12649332 0.08313436 -0.041225318 -0.114090994 0.12956709 0.028379256 -0.25043216
-0.076502115 -0.03703434 -0.069823556 -0.047884937 0.047205076 -0.056258395 0.18016702 -0.040847834
0.042871602 0.09118821 0.10546467 0.01266268 0.019992476 -0.009848908 -0.11457936 0.11830587
0.037688952 0.18924917 -0.17399588 0.023074256 0.019074285 -0.10619342 -0.032325067 0.20380165
00000000: bc76 463d e6f5 693d 1cc8 88bd e8f7 f8bd
00000010: 2912 0f3d 3b8f 2fbd 6ef1 9ebd c3fe c93c
00000020: 7e05 6cbb 8047 8b3d d091 7a3c b266 1fbd
00000030: 403d 1e3e 56ab 003c b9a6 1d3d d2cd bcbd
00000040: e68d 89bd 1c8b b53d 93c7 26bd db5c 9ebd
00000050: 7515 c5bc 11c5 9d3c 8079 c23d 5be9 e2bc
00000060: d46d 1d3e a5ed 29bd 3a68 08bc 478a 233e
00000070: abc4 24bd 26e4 96bd b338 c13d d265 b1bd
00000080: dba4 803d 3804 aebc 19a4 9b3d ce2a a93c
00000090: cdb5 e5bc 1c80 55bd 88f6 263e 1ad0 abbd
000000a0: 630d a03d 503e f7bc 9dd0 0a3d 83bb 2a3d
000000b0: ad6c 153d 6a7d 643d da90 913d a392 5a3e
000000c0: 979f 013d 2358 193d 5195 88bd 7a05 79bd
000000d0: 281a 9a3d f154 173a 4fe1 8c3d 823b cfbc
000000e0: 650b 363d ab69 ffbb 0e50 983d 937e 6c3b
000000f0: 1630 68bd 4f8d 103e f657 c0bc add3 66bd
00000100: 989f bbbd bbac 4cbc 5ef9 f03c d3ef 253e
00000110: 3d60 153c 90b8 533d 4096 66bd 4c42 3e3d
00000120: a139 b9bc 4913 05bd 7dbf 643d 35e0 923d
00000130: a323 0b3d 0a76 fb3c b7d2 4e3c d99c bdbd
00000140: 83f1 963c 09d3 ddbb 1bf2 b03d e209 39bd
00000150: 0430 493d ce59 9bbc 91fc 703d 4a27 603c
00000160: 543f 683d 4425 2ebd 1e93 ea3d 4dbf 423d
00000170: 6a47 103e 53d2 b23d fa4b 333c e3f1 d03a
00000180: fcfc 1c3d 755b 97bd ee9a bf3d dc99 5bbd
00000190: c5cf 72bd 137e d73d 5fda 793d 3217 3cbd
000001a0: a2c3 4dbd c067 13bd 8d92 98bd 9017 5e3b
000001b0: fa27 41bb 0049 0abe 0618 74bd d46f 3ebd
000001c0: 3651 233c c0bc 793d 429b 163d d056 8cbd
000001d0: 3499 663d 0de3 953c 1bf1 ca3d 7c74 f2bc
000001e0: f912 62bd eae5 243e 2b0d 533d 088b 6e3c
000001f0: 0370 89bc a181 813c 4491 66bd ea0b 95bd
00000200: 6fd7 39bd 54f6 48bd 53e0 0b3e 7e64 723d
00000210: c2a7 e43c 4e9b 803c f22e 08be 4ab6 353e
00000220: 7fa1 f53c a501 86bd d7e2 8a3b da4c 79bd
00000230: 2892 533d 7018 8ebd 6411 d5bc c16d d3bd
00000240: 3e4d b6bb 8d22 79bc 84cc e33d dc4c 8b3c
00000250: c672 27bd 1db8 29bb dc26 66ba b6a8 703c
00000260: c332 60bd a57e 883b 3062 2e3e d176 20bd
00000270: 4f41 20bc 0792 283d 4e17 8bbd 79f2 edbd
00000280: f5be a0bd 6c65 d8bc bea3 483d 55aa c93d
00000290: 568f 9c3d 4554 953c bf10 f0bc dde2 423b
000002a0: 5d52 abbd 050c 773d 7b0a 45bc 5f34 eeba
000002b0: a5ff 07bd 426c 61bd ef1e 51bd bf87 e5bd
000002c0: 3136 283d 67cd 80bd 0ff7 3dbd 45ab f03c
000002d0: 7a2b d8bc 4755 873d 807a afbb f274 073e
000002e0: 40c7 1e3d d3ee 80bd 6873 0f3e 8b0b 1b3e
000002f0: cd04 62bd 0114 013e 7c82 113c 7895 5cbe
00000300: e1f0 25be c6f7 8e3d 8582 a73c a14b 28be
00000310: b4a3 f6bd cd45 c73d 16f1 2dbc f69c fc3d
00000320: 20fc 5f3e f2bc a23d 9df9 143e 127e 66bd
00000330: 8df4 6f3e 5fd5 853e 5026 923c c1b9 abbd
00000340: 853f 9f3c f8f5 5bbb e994 573d 5cea 9dbd
00000350: d138 b33d 1491 703e 90cf 0ebd 21a1 8fbd
00000360: 1b60 493d e870 cf3d 1db4 f23a 1cb7 b83c
00000370: 503a 91bd 94b5 903d f180 203c 396f e03d
00000380: 62fd b53d 7787 01be 5942 aa3d e1db 28bd
00000390: 8aa8 e9bd 3cad 043e 9d7b e83c a538 80be
000003a0: 24ad 9cbd 52b1 17bd a7ff 8ebd ff22 44bd
000003b0: 1c5a 413d 346f 66bd b47d 383e 0f50 27bd
000003c0: 229a 2f3d e2c0 ba3d dcfd d73d 2177 4f3c
000003d0: 43c7 a33c 505d 21bc 95a8 eabd 594a f23d
000003e0: bb5f 1a3d 89ca 413e fa2b 32be 3906 bd3c
000003f0: ad41 9c3c f07b d9bd 4a67 04bd 61b1 503e

fc2.bias f4 [128]
0.04145882 0.0927533 0.09418989 -0.040364984 -0.021475397 -0.10830378 -0.043136787 -0.080194145
0.012233508 0.059408832 0.04963928 -0.030498121 -0.07251093 -0.06813917 0.0066781943 0.030470075
0.08072128 -0.0050603524 0.042768206 -0.056092158 0.0071845422 -0.069096155 -0.04501704 0.07401034
0.14815019 0.1933484 -0.04635313 0.10189558 -0.04521011 0.029873542 0.02672974 0.010253323
0.10826498 0.052453544 0.04921889 -0.030329932 -0.07173357 -0.04519651 -0.04383842 -0.054338336
-0.0858949 -0.011422653 0.035689738 -0.025156887 -0.0059979735 0.043432277 -0.069922574 0.020305386
-0.010250958 0.08734296 -0.050724518 -0.059759248 0.0977566 -0.07088545 0.06233773 -0.010483258
0.050997645 0.0030345926 0.062296744 0.004148295 0.17391089 0.10591706 0.037309024 0.14206938
-0.055815015 0.034776118 -0.045134168 -0.04313003 0.08892474 0.11270591 0.040840104 -0.08044576
0.056313246 -0.07514841 0.025193078 -0.01216516 0.074335545 -0.04441376 -0.062544115 -0.10408988
0.041150827 -0.018839382 0.022474743 0.027235286 0.062247243 -0.0047750073 -0.09607612 0.007112176
0.00030141434 0.12217277 -0.06639231 -0.04426055 -0.117738456 -0.022453718 0.019979822 0.002087151
-0.09205848 -0.050600193 0.021429313 -0.040157754 0.02245747 -0.0130554205 0.07247047 -0.08165849
-0.0336684 -0.08666695 -0.10877189 -0.043991808 0.061766192 -0.09689556 -0.06289338 0.031696193
0.054888394 -0.10655089 0.027536558 -0.007611895 0.0039496217 -0.08874833 -0.13817166 -0.017816797
-0.09061312 -0.036051936 0.03188658 -0.024107471 -0.029152209 0.040658735 0.023868818 -0.13395189
00000000: b9d0 293d 71f5 bd3d a1e6 c03d c155 25bd
00000010: 2ced afbc 5fce ddbd 33b0 30bd d43c a4bd
00000020: 0d6f 483c ad56 733d 8f52 4b3d 32d7 f9bc
00000030: 9c80 94bd 8d8c 8bbd c1d4 da3b 619c f93c
00000040: 3351 a53d 50d1 a5bb b72d 2f3d e4c0 65bd
00000050: 4f6c eb3b 4982 8dbd ca63 38bd bc92 973d
00000060: afb4 173e 1ffd 453e c8dc 3dbd a1ae d03d
00000070: 3c2e 39bd 5cb9 f43c 54f8 da3c 8efd 273c
00000080: 08ba dd3d 87d9 563d bf99 493d 7a76 f8bc
00000090: 0de9 92bd fa1f 39bd ea8f 33bd e091 5ebd
000000a0: aae9 afbd 1426 3bbc 672f 123d d115 cebc
000000b0: a68a c4bb 0be6 313d 9133 8fbd 7b57 a63c
000000c0: a2f3 27bc dee0 b23d 83c4 4fbd 1dc6 74bd
000000d0: 9d34 c83d 642c 91bd d955 7f3d f9c1 2bbc
000000e0: e8e2 503d 04e0 463b df2a 7f3d 6cee 873b
000000f0: b215 323e 0beb d83d 59d1 183d a37a 113e
00000100: 499e 64bd 6771 0e3d 9bde 38bd 1da9 30bd
00000110: 2d1e b63d 5bd2 e63d f447 273d bfc0 a4bd
00000120: b8a8 663d 69e7 99bd b761 ce3c 6150 47bc
00000130: 3c3d 983d 34eb 35bd 2117 80bd 132d d5bd
00000140: c58d 283d 0c55 9abc f41c b83c 891c df3c
00000150: f7f6 7e3d aa77 9cbb 8fc3 c4bd 420d e93b
00000160: 2607 9e39 b835 fa3d b1f8 87bd 8d4a 35bd
00000170: dc20 f1bd dcf0 b7bc b9ac a33c 95c8 083b
00000180: 2889 bcbd 2642 4fbd 878c af3c 757c 24bd
00000190: baf8 b73c 67e6 55bc 666b 943d 913c a7bd
000001a0: e0e7 09bd 717e b1bd ccc3 debd c130 34bd
000001b0: 8cfe 7c3d 2e71 c6bd 3fce 80bd ded3 013d
000001c0: a7d2 603d 5a37 dabd 5994 e13c 346d f9bb
000001d0: d46b 813b afc1 b5bd df7c 0dbe 88f4 91bc
000001e0: 5f93 b9bd 32ab 13bd 819b 023d 087d c5bc
000001f0: 9dd0 eebc c689 263d 8a88 c33c af2a 09be

fc3.weight f4 [64, 128]
-0.049106304 -0.027320586 0.12649763 -0.051621407 0.06334875 0.01944296 0.008591298 -0.11041419
0.12792742 0.10144148 0.06067752 -0.07305225 -0.0037930112 0.0025644214 0.056900542 0.015041195
-0.020174041 -0.037948307 -0.060853355 -0.026839117 0.12273099 -0.02070149 -0.025542907 -0.0022879138
-0.14909478 -0.015976993 0.08554684 -0.2218468 -0.06395642 -0.043446597 -0.016016498 -0.07138991
-0.0900217 0.09557001 0.01176122 0.05724113 0.0061816648 0.06804886 0.005151849 0.006253174
0.07233124 -0.07651077 -0.018694568 -0.04396252 -0.02237668 -0.039351046 -0.06970984 0.07070321
-0.075798415 0.23225047 0.1207823 -0.08414289 0.0014059617 0.04366404 0.24755628 -0.0048665777
-0.17094962 0.14565526 0.03443917 0.09857116 0.0072280853 0.12559548 -0.0982398 -0.12478983
0.009546302 0.054406308 -0.046360373 0.02747591 0.289276 0.19592185 0.10871845 -0.026502747
-0.015205061 -0.060271822 0.07539196 0.038292862 0.19890618 0.0858118 -0.06642963 0.06588449
-0.03699074 0.0699974 0.014581952 -0.03392657 -0.042753033 0.18204376 -0.023478331 -0.08710774
0.007862135 0.013785367 0.045692317 -0.017989935 0.040374875 0.05740248 0.26781005 0.0052228416
0.07044331 -0.0032244863 0.05397531 -0.050641038 0.06186844 0.15687186 0.11747465 0.12157304
-0.020682544 0.052285425 0.03267859 -0.057513136 0.0016099811 -0.1066373 0.102389745 -0.08250779
0.057316698 -0.12013693 -0.016002601 -0.017168684 0.016160546 -0.054642715 0.07682475 -0.056154944
0.08708293 0.077724904 -0.108016886 -0.017208328 0.20091343 0.16920143 -0.028769674 0.03883413
-0.013408949 0.10686191 -0.030931674 -0.08457038 -0.06293203 -0.025179463 -0.002475248 -0.11802107
-0.11274347 0.08380671 -0.051718444 0.04920105 -0.15642093 -0.10774645 -0.028607588 -0.02625158
0.057751436 -0.03843459 -0.12872297 -0.099579304 -0.005187461 0.0016307458 -0.065138 -0.05069385
-0.06603716 0.1509292 -0.08430913 0.0558567 0.002124697 0.09936162 -0.069070034 -0.028090093
0.05952819 0.07603239 0.028595574 -0.016894743 0.085162185 0.045764226 0.03864479 0.009707663
-0.015816083 0.080698304 -0.04240784 -0.08210272 0.055402257 -0.078497 -0.016859546 0.02442645
-0.057750892 -0.084628075 -0.07069822 0.051922362 0.0006057071 0.06406622 -0.10998144 0.032685734
-0.020753829 -0.1294191 0.02235511 0.10083904 0.05355996 -0.054503664 -0.057081 0.04310778
-0.064860076 -0.053947564 -0.028748749 0.012364638 -0.19505037 0.056200683 0.03556292 0.043769266
0.0042834915 -0.082349494 0.050853353 0.058492385 0.04301659 0.04133082 -0.061959244 0.046736214
-0.043091137 -0.094229475 0.07783945 -0.041366775 -0.03488204 -0.16531152 0.04163325 -0.026522692
0.0007140476 -0.01615966 0.022018291 -0.04011864 0.03268581 0.0077226157 -0.05504411 -0.05482811
-0.033926137 0.031211637 -0.043694846 0.019893453 0.071631216 -0.047947884 0.053595234 -0.13600028
-0.015645472 -0.05572239 -0.08215299 0.046725616 0.033011056 -0.0118252095 -0.099393785 -0.015275829
-0.091530636 0.048032474 0.016813295 0.0185656 0.053955715 -0.053270318 -0.0050764857 -0.07755769
0.020706248 0.0029185195 0.08259246 0.09600351 -0.07084567 -0.02804764 -0.0055506015 -0.014557201
00000000: b123 49bd 6ccf dfbc 9888 013e f870 53bd
00000010: fdbc 813d d846 9f3c 84c2 0c3c d620 e2bd
00000020: 68ff 023e 8dc0 cf3d fe88 783d 6b9c 95bd
00000030: 2b94 78bb da0f 283b 8b10 693d 586f 763c
00000040: 0844 a5bc af6f 1bbd 5e41 79bd b5dd dbbc
00000050: 635a fb3d 2c96 a9bc 5c3f d1bc d3f0 15bb
00000060: 4dac 18be 2fe2 82bc 2f33 af3d cf2b 63be
00000070: 95fb 82bd 0ff5 31bd 0835 83bc e034 92bd
00000080: 4c5d b8bd 36ba c33d 22b2 403c ad75 6a3d
00000090: 908f ca3b 335d 8b3d d7d0 a83b 6de7 cc3b
000000a0: 6722 943d aeb1 9cbd 5a25 99bc 0b12 34bd
000000b0: 4d4f b7bc 902e 21bd 08c4 8ebd d8cc 903d
000000c0: 333c 9bbd 11d3 6d3e b65c f73d 1c53 acbd
000000d0: 3f48 b83a 10d9 323d 657f 7d3e d077 9fbb
000000e0: 6b0d 2fbe a726 153e 1610 0d3d addf c93d
000000f0: 93d9 ec3b 1a9c 003e f331 c9bd cf91 ffbd
00000100: 1868 1c3c 26d9 5e3d 60e4 3dbd 2915 e13c
00000110: fc1b 943e bd9f 483e c7a7 de3d 4a1c d9bc
00000120: a61e 79bc 96df 76bd 1a67 9a3d fad8 1c3d
00000130: 10ae 4b3e 19be af3d 420c 88bd 73ee 863d
00000140: 9a83 17bd cc5a 8f3d 24e9 6e3c 96f6 0abd
00000150: ce1d 2fbd ae69 3a3e a155 c0bc 8b65 b2bd
00000160: 2fd0 003c 05dc 613c de27 3b3d a15f 93bc
00000170: 2060 253d dd1e 6b3d 661e 893e 5f24 ab3b
00000180: 9544 903d e751 53bb 3715 5d3d fa6c 4fbd
00000190: c369 7d3d 04a3 203e 8d96 f03d 49fb f83d
000001a0: 706e a9bc 3e29 563d fcd9 053d e592 6bbd
000001b0: 0006 d33a a864 dabd b7b1 d13d d8f9 a8bd
000001c0: eac4 6a3d 5a0a f6bd e317 83bc 57a5 8cbc
000001d0: 1f63 843c 0ad1 5fbd 4b56 9d3d ba02 66bd
000001e0: 8958 b23d 3c2e 9f3d f537 ddbd 7bf8 8cbc
000001f0: 40bc 4d3e 2443 2d3e 61ae ebbc 8910 1f3d
00000200: 35b1 5bbc 6bda da3d 6c64 fdbc 3c33 adbd
00000210: 82e2 80bd 2945 cebc c537 22bb 08b5 f1bd
00000220: 0ce6 e6bd daa2 ab3d b8d6 53bd 0a87 493d
00000230: cf2c 20be 2caa dcbd 765a eabc 8e0d d7bc
00000240: c58c 6c3d 976d 1dbd f4cf 03be 3cf0 cbbd
00000250: 94fb a9bb c0be d53a 1267 85bd 5ba4 4fbd
00000260: 7e3e 87bd 2f8d 1a3e 44aa acbd ffc9 643d
00000270: 803e 0b3b 1b7e cb3d 9774 8dbd 321d e6bc
00000280: d5d3 733d dfb6 9b3d 4441 ea3c d866 8abc
00000290: 8369 ae3d 4573 3b3d 004a 1e3d e40c 1f3c
000002a0: bb90 81bc 2745 a53d d8b3 2dbd 7925 a8bd
000002b0: 7aed 623d 09c3 a0bd 081d 8abc fa19 c83c
000002c0: 338c 6cbd 7c51 adbd 3aca 90bd 8bac 543d
000002d0: 51c8 1e3a 2635 833d f33d e1bd 7ae1 053d
000002e0: ef03 aabc 7186 04be 1022 b73c b384 ce3d
000002f0: b061 5b3d 3c3f 5fbd c4cd 69bd c991 303d
00000300: 5cd5 84bd 1ff8 5cbd 7f82 ebbc 0d95 4a3c
00000310: 49bb 47be b032 663d 6daa 113d 6747 333d
00000320: 885c 8c3b daa6 a8bd 9b4b 503d b695 6f3d
00000330: 2a32 303d 824a 293d fac8 7dbd 796e 3f3d
00000340: 5580 30bd 62fb c0bd 4a6a 9f3d 3570 29bd
00000350: 78e0 0ebd 6c47 29be a087 2a3d 1e46 d9bc
00000360: ec2e 3b3a 4361 84bc b45f b43c 7153 24bd
00000370: 8ee1 053d ff0d fd3b ef75 61bd 7193 60bd
00000380: 22f6 0abd 8caf ff3c 5ef9 32bd 98f7 a23c
00000390: 63b3 923d 0065 44bd ad86 5b3d a843 0bbe
000003a0: ef2a 80bc 293d 64bd d43f a8bd 5c63 3f3d
000003b0: 9a36 073d 86be 41bc f88e cbbd 7847 7abc
000003c0: 6a74 bbbd b3bd 443d 09bc 893c e316 983c
000003d0: ab00 5d3d fa31 5abd a658 a6bb 91d6 9ebd
000003e0: 26a0 a93c a244 3f3b 3c26 a93d 7d9d c43d
000003f0: 8917 91bd 2ac4 e5bc d2e1 b5bb 5481 6ebc

fc3.bias f4 [64]
-0.02761448 0.0922925 0.024704872 -0.116414584 -0.06600902 0.012866695 0.11608174 -0.0757382
0.0871032 -0.07040631 0.029835882 0.0020031796 0.026886743 -0.0122836875 -0.07948857 -0.056178793
0.08851463 -0.05838075 -0.09137927 -0.096688114 -0.108338505 0.119126774 0.008759247 0.035987064
-0.038134716 -0.124249026 0.01033785 -0.077551946 0.048279725 0.09488395 -0.14994356 -0.05135425
0.026456341 0.035679508 0.005697781 -0.06083468 -0.028119795 -0.014771262 -0.123691574 0.034816805
0.12458002 0.016369104 -0.05706463 0.03893335 -0.008450244 -0.09311094 -0.017927764 0.019622987
0.06390251 0.02959967 0.0432729 0.08700128 -0.025033623 -0.05959359 0.0080504995 0.037217855
-0.08685747 0.06581274 -0.015629731 0.02543203 0.045046218 0.04112422 0.06138249 -0.14164303
00000000: c337 e2bc da03 bd3d df61 ca3c c56a eebd
00000010: bd2f 87bd d5ce 523c 43bc ed3d a11c 9bbd
00000020: 2a63 b23d 2f31 90bd 616a f43c c747 033b
00000030: 9641 dc3c 8541 49bc e7ca a2bd bc1b 66bd
00000040: 2947 b53d a720 6fbd 0e25 bbbd 6b04 c6bd
00000050: 94e0 ddbd bdf8 f33d f282 0f3c 2c67 133d
00000060: 2633 1cbd 4676 febd 1660 293c 8ed3 9ebd
00000070: f6c0 453d 8452 c23d ce8a 19be d658 52bd
00000080: f8ba d83c ad24 123d 74b4 ba3b c92d 79bd
00000090: 7c5b e6bc 2a03 72bc 0252 fdbd 119c 0e3d
000000a0: cf23 ff3d 8018 863c 9abc 69bd 9478 1f3d
000000b0: e472 0abc f3b0 bebd 3fdd 92bc 63c0 a03c
000000c0: 52df 823d 027b f23c ed3e 313d ba2d b23d
000000d0: 5013 cdbc 6918 74bd 3ee6 033c c071 183d
000000e0: 54e2 b1bd d4c8 863d ec09 80bc d556 d03c
000000f0: 6282 383d df71 283d 356c 7b3d df0a 11be

fc4.weight f4 [4, 64]
0.11776036 -0.04728768 0.087343566 -0.044038486 -0.036592208 0.16142237 0.050471097 0.113192275
0.06822454 -0.16595292 0.06491722 0.05312912 -0.119894154 0.048444837 -0.07273252 -0.03957348
0.053451087 -0.17177178 -0.03211603 -0.09132524 -0.13192187 0.08380578 0.025733681 0.0013602778
-0.025546577 -0.062722564 0.009037205 0.0005598071 0.093947165 0.045261614 -0.14849362 -0.030617855
0.045078102 -0.042659074 -0.051977135 0.009091111 0.01771996 0.01706362 -0.20241676 -0.0033147295
0.20592095 0.05225189 -0.13442148 -0.008716083 -0.1011012 -0.060286865 -0.042833976 -0.114236064
0.0946986 -0.21559633 0.21901485 -0.080328524 -0.056704815 -0.07752839 -0.063782126 -0.11107771
-0.057505943 0.12906069 0.064615704 0.071751855 -0.1117214 0.017898045 0.124710225 -0.0016535003
-0.17342003 -0.02029012 -0.11031424 -0.08482077 0.044495836 -0.25709814 -0.22537354 0.012416536
-0.20947324 0.11472004 -0.055471946 -0.09057468 -0.0024323429 0.098686 -0.0801526 0.034570355
-0.29053172 0.023793126 -0.04722571 -0.035343718 -0.1040435 0.055932324 -0.084823534 0.042507872
-0.078576796 -0.095447995 -0.052690987 0.07044908 -0.14932507 -0.17089859 -0.051719625 -0.05490623
0.072201036 0.06506983 -0.27234116 0.12343768 -0.06911916 0.07274498 -0.3963823 0.012257529
-0.12968078 -0.29602355 0.004981446 -0.08616771 -0.027533576 0.12381209 0.17746569 -0.047234107
-0.039630655 -0.32049307 0.0382306 -0.25893727 -0.05211669 -0.06356488 0.017864421 -0.06316882
-0.004018569 0.06769755 -0.11175205 -0.024171708 -0.2683423 -0.18056089 0.0073920446 -0.014632837
0.23963895 -0.12260281 -0.13730112 -0.022873336 0.016304152 0.13155398 -0.028029915 -0.06052918
0.026718972 -0.057588413 0.081261285 0.047434323 0.31260085 -0.09042543 -0.035799794 -0.028109686
0.07565713 0.27196717 -0.0151032 -0.1157114 -0.08077519 -0.17824893 0.33420974 -0.060377423
0.019682951 -0.09066009 -0.09086497 -0.042461127 -0.10080618 -0.12020034 0.36137614 -0.115087196
-0.015447284 -0.1070128 0.083581485 0.07420783 -0.035015967 0.10281643 0.27842116 0.006362142
-0.06742662 0.14372805 0.32108054 -0.25994903 -0.07239608 -0.10899755 -0.16361266 0.08667726
0.20770377 0.018200194 -0.13032389 0.10444545 -0.06631396 0.050158534 -0.11514336 0.048713148
0.25527588 -0.2763156 -0.0125326635 -0.09103573 0.21634701 0.18073356 0.3050807 -0.016183207
-0.2919283 0.13265157 0.096066974 0.040033247 -0.04099945 -0.009225362 -0.10467317 -0.026098434
0.07257933 0.054712463 -0.11976338 -0.10928306 -0.31494018 -0.10938479 -0.02059605 -0.09326975
0.17473657 -0.35044932 0.07461117 -0.064533755 -0.0767542 0.07181752 -0.098662764 -0.0548918
0.01685555 -0.0672081 -0.09714537 -0.094442844 0.067730255 0.19036572 -0.16784051 0.0054228744
-0.058876276 -0.1200771 0.2015745 -0.08866587 -0.012055223 -0.009620506 -0.13405992 0.0039892476
0.016676618 -0.14733292 -0.30188242 0.16316094 -0.080710895 -0.16833784 -0.009098134 -0.10953029
-0.18024144 -0.005489764 0.25291932 0.13080211 -0.04980998 0.07903253 -0.09341884 -0.04013518
-0.37083757 0.1776472 0.23527 -0.065517 -0.121363714 -0.24623002 -0.10452615 0.012148299
00000000: 582c f13d bab0 41bd 2fe1 b23d b361 34bd
00000010: b6e1 15bd e84b 253e c8ba 4e3d 5ad1 e73d
00000020: 4fb9 8b3d 90ef 29be 52f3 843d ec9d 593d
00000030: 118b f5bd 186e 463d caf4 94bd cd17 22bd
00000040: 87ef 5a3d f1e4 2fbe 198c 03bd ba08 bbbd
00000050: 8716 07be 5da2 ab3d 71cf d23c 594b b23a
00000060: 0e47 d1bc b074 80bd c910 143c 05c0 123a
00000070: 5f67 c03d 3e64 393d b60e 18be 4cd2 fabc
00000080: d1a3 383d 48bb 2ebd fae5 54bd e2f2 143c
00000090: 7329 913c 01c9 8b3c 5746 4fbe ef3b 59bb
000000a0: f1dc 523e 1406 563d c9a5 09be e7cd 0ebc
000000b0: 250e cfbd 5cef 76bd ae72 2fbd 99f4 e9bd
000000c0: 57f1 c13d 49c5 5cbe 6e45 603e 4883 a4bd
000000d0: 4f43 68bd 34c7 9ebd 34a0 82bd b67c e3bd
000000e0: 5a8b 6bbd 7c28 043e 3d55 843d a3f2 923d
000000f0: 30ce e4bd ec9e 923c 1368 ff3d 43ba d8ba
00000100: 0595 31be 7737 a6bc 6fec e1bd 83b6 adbd
00000110: 4441 363d 5ea2 83be 52c8 66be ba6e 4b3c
00000120: 2780 56be 57f2 ea3d 8d36 63bd 387f b9bd
00000130: f167 1fbb e31b ca3d 0c27 a4bd a599 0d3d
00000140: 93c0 94be cde9 c23c bf6f 41bd 93c4 10bd
00000150: c214 d5bd 4b19 653d f6b7 adbd bc1c 2e3d
00000160: dfec a0bd 3d7a c3bd 81d2 57bd 9b47 903d
00000170: ace8 18be 0a00 2fbe f5d7 53bd 5be5 60bd
00000180: 23de 933d 5543 853d 4d70 8bbe e5cc fc3d
00000190: 598e 8dbd 52fb 943d 9ff2 cabe ced3 483c
000001a0: 0acb 04be 6690 97be 663b a33b b278 b0bd
000001b0: 188e e1bc 3191 fd3d 91b9 353e 8d78 41bd
000001c0: c153 22bd ab17 a4be b197 1c3d 6d93 84be
000001d0: 4f78 55bd 4e2e 82bd 6858 923c a85e 81bd
000001e0: 33ae 83bb 03a5 8a3d 42de e4bd bf03 c6bc
000001f0: 2964 89be f4e4 38be f738 f23b 91be 6fbc
00000200: ea63 753e 2f17 fbbd aa98 0cbe dd60 bbbc
00000210: 4990 853c 16b6 063e fe9e e5bc 72ed 77bd
00000220: bfe1 da3c d4e1 6bbd 516c a63d 7e4a 423d
00000230: 380d a03e f830 b9bd cea2 12bd 4946 e6bc
00000240: 20f2 9a3d 483f 8b3e 6a73 77bc 19fa ecbd
00000250: 766d a5bd e386 36be 8a1d ab3e 514e 77bd
00000260: 243e a13c ffab b9bd 6a17 babd b8eb 2dbd
00000270: 7873 cebd 992b f6bd 4b06 b93e d6b2 ebbd
00000280: 9b16 7dbc 8729 dbbd c52c ab3d 46fa 973d
00000290: e76c 0fbd 6c91 d23d 388d 8e3e 8479 d03b
000002a0: f816 8abd 722d 133e ab64 a43e 0a18 85be
000002b0: 6544 94bd 1c3a dfbd 148a 27be d983 b13d
000002c0: 4cb0 543e 9318 953c a073 05be 7fe7 d53d
000002d0: 9dcf 87bd 0973 4d3d 48d0 ebbd 7087 473d
000002e0: 85b3 823e 3d79 8dbe cd55 4dbc f170 babd
000002f0: 128a 5d3e 3812 393e 8a33 9c3e a592 84bc
00000300: a077 95be d0d5 073e c3be c43d e7f9 233d
00000310: 0aef 27bd f925 17bc e35e d6bd 62cc d5bc
00000320: 79a4 943d 2d1a 603d 8146 f5bd cccf dfbd
00000330: d73f a1be 2205 e0bd 0cb9 a8bc 3604 bfbd
00000340: 25ee 323e 186e b3be becd 983d 462a 84bd
00000350: 4e31 9dbd 1015 933d b40f cabd 39d6 60bd
00000360: a714 8a3c 66a4 89bd 27f4 c6bd 406b c1bd
00000370: 29b6 8a3d 3bef 423e 62de 2bbe 5eb2 b13b
00000380: 4028 71bd fcea f5bd 8c69 4e3e 7496 b5bd
00000390: 4583 45bc 549f 1dbc 0147 09be 3cb8 823b
000003a0: 679d 883c 71de 16be 5590 9abe a913 273e
000003b0: c14b a5bd c160 2cbe 5710 15bc 6b51 e0bd
000003c0: 3691 38be 7ae3 b3bb a47e 813e fdf0 053e
000003d0: 8d05 4cbd cfdb a13d 6052 bfbd c964 24bd
000003e0: 6cde bdbe 26e9 353e 9eea 703e c72d 86bd
000003f0: 8a8d f8bd b923 7cbe ce11 d6bd a909 473c

fc4.bias f4 [4]
0.0034476058 -0.22307383 0.086356275 -0.044518713
00000000: 3af1 613b 776d 64be 8fdb b03d 4159 36bd
