saves/latest_model_basic.pth (torch, 107283 bytes, 8 tensors)

fc1.weight f4 [128, 6]
-0.10011756 0.4422979 -0.3438181 0.389439 -0.12696764 -0.21748589 -0.08136156 -0.05888325
-0.0641301 0.044079453 -0.32109702 0.29164863 -0.30942702 -0.22717896 0.24077179 -0.177713
-0.3110528 0.29951632 0.16320191 0.34864524 -0.20885818 0.04436492 -0.2504774 0.07174053
0.280393 -0.061203722 0.34886461 -0.28263682 0.0015023199 -0.06393466 -0.06704118 0.27881378
-0.18256332 0.326751 -0.08976367 0.1122778 0.0065981736 -0.0031750784 0.10087729 -0.24946074
0.04188133 0.03031313 -0.4186617 -0.26137957 0.3807855 0.34896085 0.39982826 -0.3501717
0.03372794 -0.040496424 0.2068075 -0.10785965 0.19044179 0.119629644 -0.3998116 0.32815644
-0.40626073 -0.296303 -0.35899276 0.2651105 0.16239929 0.30561998 -0.17301346 0.27210397
0.12505393 0.0828467 0.34998354 -0.11528777 -0.074923806 -0.32761857 -0.3519806 -0.26849252
-0.2104888 -0.25672212 0.16305697 0.50022733 0.022961253 0.3219237 -0.044984527 -0.032797333
-0.20828556 -0.028532477 0.0757305 -0.12780306 0.16776636 0.16248909 0.2497076 -0.26588446
0.050083008 0.020562949 -0.035383813 0.3659651 -0.36110842 0.19178392 -0.08680144 -0.25590318
0.22666751 0.076757126 -0.2988672 -0.3228015 0.2449425 -0.3267406 0.07091773 -0.37694225
-0.28578812 -0.034046635 0.11173529 0.06493329 0.1494043 -0.14457107 0.31299752 0.26552963
0.27840653 0.24717017 -0.06919453 0.35871667 -0.18128975 0.11758492 -0.20806688 -0.10072107
-0.11330255 -0.08867027 -0.30587655 0.085623875 -0.059168626 -0.22558488 0.28630823 -0.014749051
-0.5174863 -0.02383689 -0.21906309 0.14394286 0.01812839 -0.3166004 0.056892995 -0.37467378
-0.22372591 -0.009232783 0.2991144 0.28288612 -0.47496465 0.08104486 0.18310104 0.24644305
-0.43141115 0.31137857 0.31216767 -0.0081584845 0.010879107 0.18381329 0.09821752 0.36485377
-0.4279662 -0.063347 -0.18759206 -0.34003797 -0.087056436 0.3384919 0.14660229 0.179044
-0.068780646 -0.040003795 -0.28785342 0.15699607 -0.35996893 0.33857462 0.3854234 -0.04993462
0.15455823 0.023581028 0.36030412 -0.38300246 0.250317 -0.2513026 0.27164283 0.2631855
0.19676548 -0.41007048 -0.08548025 -0.20744982 -0.17790769 0.1184422 -0.2077412 -0.3018846
-0.021320246 -0.43627244 0.38976997 -0.34748656 0.049688067 -0.4794485 -0.15027593 -0.2330415
-0.4021986 -0.1829343 -0.23483151 0.14041835 -0.37356496 -0.009184003 -0.28799495 -0.22133908
-0.19797601 0.122030556 -0.264246 -0.3145879 -0.26178592 -0.40639415 -0.07996687 -0.3155466
-0.25368097 0.12747598 0.28699243 -0.4024957 -0.0067314897 0.3728297 -0.22513793 -0.24210224
0.065916516 0.15265757 0.040400706 -0.46907422 0.3460982 -0.26735562 -0.09757959 -0.11956196
0.46469772 0.14405805 0.10199966 0.33509725 -0.47817764 0.15393142 0.35939422 0.31807256
0.25024688 -0.34799954 0.054228324 -0.0344635 0.35876513 -0.1431272 -0.21027555 0.10503944
-0.26524907 -0.36156404 0.1344676 -0.36943763 -0.29559377 -0.39900494 0.23233528 0.018484728
-0.31935364 0.23311035 -0.24818608 -0.19042014 0.23669016 0.28055394 -0.4161581 -0.3384259
00000000: 6f0a cdbd df74 e23e ed08 b0be 8c64 c73e
00000010: ce03 02be 9fb4 5ebe e4a0 a6bd 902f 71bd
00000020: a456 83bd a88c 343d d466 a4be f852 953e
00000030: 386d 9ebe 9aa1 68be e18c 763e 66fa 35be
00000040: 5042 9fbe 345a 993e 671e 273e a181 b23e
00000050: ebde 55be feb7 353d 933e 80be b3ec 923d
00000060: ac8f 8f3e c1b0 7abd 629e b23e c6b5 90be
00000070: 7ee9 c43a 2df0 82bd e34c 89bd aec0 8e3e
00000080: e1f1 3abe e84b a73e 04d6 b7bd e7f1 e53d
00000090: 7e35 d83b fa14 50bb c198 ce3d a372 7fbe
000000a0: c28b 2b3d 3e53 f83c d45a d6be 8bd3 85be
000000b0: 51f6 c23e ffaa b23e 4ab6 cc3e b449 b3be
000000c0: 4f26 0a3d 94df 25bd 58c5 533e 85e5 dcbd
000000d0: 2c03 433e 6300 f53d 1bb4 ccbe 1f04 a83e
000000e0: 6801 d0be 07b5 97be e6cd b7be 90bc 873e
000000f0: 004c 263e 397a 9c3e 712a 31be 3651 8b3e
00000100: 230e 003e 88ab a93d 0b31 b33e ff1b ecbd
00000110: a771 99bd 9fbd a7be cd36 b4be da77 89be
00000120: 608a 57be 1571 83be 68f8 263e e60e 003f
00000130: 3d19 bc3c 2fd3 a43e b241 38bd 7f56 06bd
00000140: cf48 55be f1bc e9bc 9818 9b3d cede 02be
00000150: f2ca 2b3e 8a63 263e 59b3 7f3e 0222 88be
00000160: d723 4d3d a173 a83c 9eee 10bd c75f bb3e
00000170: 34e3 b8be 0163 443e f4c4 b1bd be05 83be
00000180: 871b 683e d732 9d3d 1f05 99be 3d46 a5be
00000190: 35d2 7a3e 8b4a a7be 513d 913d 93fe c0be
000001a0: d252 92be 7c74 0bbd 79d5 e43d bffb 843d
000001b0: 71fd 183e 700a 14be 3641 a03e 80f3 873e
000001c0: 4d8b 8e3e 2d1a 7d3e ddb5 8dbd b6a9 b73e
000001d0: 05a4 39be 5dd0 f03d 7c0f 55be d946 cebd
000001e0: 2b0b e8bd c298 b5bd da9b 9cbe 925b af3d
000001f0: cd5a 72bd b9ff 66be fe96 923e 01a6 71bc
00000200: fb79 04bf 9545 c3bc 1352 60be c265 133e
00000210: fd81 943c 7319 a2be a108 693d 3ed5 bfbe
00000220: 6818 65be 1945 17bc 8625 993e 73d6 903e
00000230: 912e f3be d9fa a53d d77e 3b3e 915b 7c3e
00000240: ece1 dcbe 036d 9f3e 71d4 9f3e 2aab 05bc
00000250: 483e 323c 8d39 3c3e 4426 c93d 1dce ba3e
00000260: 631e dbbe 12bc 81bd 2218 40be 7519 aebe
00000270: a54a b2bd cf4e ad3e e91e 163e 4f57 373e
00000280: dedc 8cbd 05db 23bd 8661 93be 94c3 203e
00000290: d94d b8be a759 ad3e 3756 c53e 3e88 4cbd
000002a0: 8344 1e3e 002d c13c c879 b83e e618 c4be
000002b0: 8d29 803e bcaa 80be c514 8b3e 40c0 863e
000002c0: e47c 493e c2f4 d1be 4510 afbd ba6d 54be
000002d0: 6f2d 36be d391 f23d 1cba 54be 9e90 9abe
000002e0: cca7 aebc 1a5f dfbe ee8f c73e c2e9 b1be
000002f0: b785 4b3d 467a f5be efe1 19be 6ea2 6ebe
00000300: faec cdbe 2153 3bbe ac77 70be d4c9 0f3e
00000310: e843 bfbe 8078 16bc 1374 93be b6a6 62be
00000320: 39ba 4abe 28eb f93d 404b 87be aa11 a1be
00000330: ce08 86be e512 d0be acc5 a3bd 538f a1be
00000340: 79e2 81be 1089 023e acf0 923e eb13 cebe
00000350: d493 dcbb 89e3 be3e 8f8a 66be a6e9 77be
00000360: 3dff 863d 4452 1c3e 367b 253d 7f2a f0be
00000370: c933 b13e d6e2 88be cfd7 c7bd e7dc f4bd
00000380: dcec ed3e f483 133e 33e5 d03d de91 ab3e
00000390: b3d3 f4be 33a0 1d3e 8502 b83e 68da a23e
000003a0: 5c20 803e ff2c b2be 851e 5e3d 9929 0dbd
000003b0: 10b0 b73e f08f 12be 7952 57be eb1e d73d
000003c0: bace 87be ec1e b9be e0b1 093e ee26 bdbe
000003d0: 1158 97be 604a ccbe 4de9 6d3e 496d 973c
000003e0: 5282 a3be 7bb4 6e3e 7e24 7ebe 7ffd 42be
000003f0: e85e 723e c4a4 8f3e ad12 d5be 2946 adbe

fc1.bias f4 [128]
-0.21404794 -0.22903454 0.3369368 -0.06635508 -0.3896437 0.19627094 -0.19511425 0.24203308
-0.040018316 -0.32992536 -0.32620156 -0.16365635 -0.18128155 0.033348523 -0.31628704 0.40520403
0.17352785 0.049493246 0.20837286 0.5409312 -0.20708516 0.2114295 -0.08869481 -0.348145
-0.26605624 0.04678327 0.33626938 0.0751807 0.35326916 -0.014706712 -0.02981345 0.16877902
0.08977747 -0.21770366 -0.18568417 0.29461378 0.21545815 0.112276524 -0.09611733 -0.28951472
-0.2523005 0.2861807 -0.49986038 0.1642107 -0.2868625 -0.15402381 -0.3495099 -0.25036865
-0.37424627 -0.33028734 -0.1642676 -0.48654756 0.35644418 0.0345371 -0.3065291 -0.48316714
-0.1980574 -0.51251024 -0.15974954 0.31861454 -0.1673404 0.37935776 -0.2412663 0.11391464
0.049305573 0.18247877 0.3912538 -0.2780717 0.058744863 0.322725 -0.23119 0.17260008
0.0960955 -0.11600832 0.305738 -0.39197436 0.12349182 0.25603467 0.1320245 0.15798159
0.16485731 0.2791505 -0.22012554 -0.14028628 -0.38576266 -0.011829988 -0.15193547 0.16631995
0.20717525 0.004810461 0.34676138 -0.18776484 0.11109957 0.3043453 -0.40191662 0.12850575
-0.0671764 0.18948486 -0.39969325 -0.37468916 0.33025637 0.19975127 0.07157505 -0.11369337
0.09295851 -0.5398874 -0.0404815 0.11518359 0.10166544 -0.00373316 0.101655774 -0.039744522
0.37031716 -0.4500441 -0.2914177 -0.19865221 -0.20761245 0.04837831 -0.23597743 0.27585322
0.09546433 -0.28589132 -0.3758567 0.030429631 0.15227711 0.19865182 0.05333744 0.28392717
00000000: 622f 5bbe 0888 6abe fb82 ac3e 2ce5 87bd
00000010: 617f c7be 40fb 483e 08cc 47be 85d7 773e
00000020: 3fea 23bd faeb a8be e403 a7be 8895 27be
00000030: dfa1 39be 7698 083d 60f0 a1be e776 cf3e
00000040: 49b1 313e 6eb9 4a3d b25f 553e 787a 0a3f
00000050: 220e 54be fa80 583e a0a5 b5bd 1040 b2be
00000060: 8638 88be d09f 3f3d 802b ac3e 57f8 993d
00000070: b2df b43e 6cf4 70bc 563b f4bc 68d4 2c3e
00000080: 40dd b73d b5ed 5ebe fe23 3ebe 9ed7 963e
00000090: 10a1 5c3e 3cf1 e53d 2ad9 c4bd 463b 94be
000000a0: 882d 81be 4786 923e b3ed ffbe da26 283e
000000b0: a4df 92be 6bb8 1dbe f6f2 b2be 5230 80be
000000c0: 359d bfbe 6c1b a9be c435 28be c31c f9be
000000d0: da7f b63e c676 0d3d 62f1 9cbe af61 f7be
000000e0: 8fcf 4abe df33 03bf 6295 23be 7221 a33e
000000f0: 485b 2bbe 2e3b c23e 830e 77be 144c e93d
00000100: a4f4 493d b7db 3a3e 6b52 c83e 6a5f 8ebe
00000110: 749e 703d 363c a53e 12bd 6cbe 13be 303e
00000120: b8cd c43d c595 edbd b189 9c3e ddb0 c8be
00000130: 48e9 fc3d fa16 833e 6e31 073e edc5 213e
00000140: 5bd0 283e d0ec 8e3e 9768 61be 35a7 0fbe
00000150: af82 c5be 91d2 41bc f994 1bbe c74f 2a3e
00000160: c025 543e 12a1 9d3b b58a b13e 6d45 40be
00000170: 2c88 e33d 26d3 9b3e 04c8 cdbe 0397 033e
00000180: c893 89bd 5208 423e 98a4 ccbe 42d7 bfbe
00000190: 5d17 a93e 998b 4c3e f195 923d 12d8 e8bd
000001a0: 0861 be3d 1036 0abf eecf 25bd 60e5 eb3d
000001b0: f835 d03d 08a8 74bb e730 d03d 27cb 22bd
000001c0: 369a bd3e 2e6c e6be b334 95be 7c6b 4bbe
000001d0: 5c98 54be 5628 463d 11a4 71be a23c 8d3e
000001e0: cd82 c33d 5960 92be 4a70 c0be 9047 f93c
000001f0: 88ee 1b3e 626b 4b3e 5c78 5a3d e75e 913e

fc2.weight f4 [128, 128]
0.043761496 0.057119273 -0.07642283 -0.11603873 0.030547569 -0.06729693 -0.07760893 -0.0011422975
-0.015540485 0.06800747 -0.012534554 -0.0319445 0.123956755 -0.05279309 -0.0020312357 -0.118182406
-0.087819934 0.057026055 -0.05672764 -0.0949135 -0.024058083 -0.007088597 0.094958305 -0.02036957
0.13615733 -0.06669518 -0.02566166 0.10004004 -0.05046732 -0.061885733 0.09434643 -0.07184992
0.0454667 -0.021242246 0.075996585 0.012452764 -0.04399865 -0.065065764 0.12153921 -0.10310708
0.07815053 -0.04525421 0.033890355 0.005218549 0.01913631 0.055783667 0.07107706 0.15990484
0.031646337 0.03521535 -0.06669105 -0.06079624 0.058718637 0.02322223 0.06878912 -0.02529693
0.06290947 -0.007794579 0.05167621 -0.018477151 -0.056686483 0.12125906 -0.032466374 -0.05683683
-0.09302415 -0.035485893 0.019009205 0.13378897 -0.021066556 0.04672391 -0.056295633 0.03226966
-0.03934096 -0.02116131 0.041988194 0.061463576 0.018609045 0.008895632 -0.008042319 -0.06757719
0.035741318 0.0063688997 0.064047225 -0.04294485 0.049118057 -0.02229724 0.058834616 -0.041581232
0.066593975 -0.047084678 0.12022044 0.04754572 0.086102195 0.05308989 -0.013764503 -0.010938228
-0.009679293 -0.055430926 0.09610368 -0.05361353 -0.058722477 0.09199 0.0489941 -0.04592056
-0.050235398 -0.035987616 -0.07793516 0.0036454275 -0.037670106 -0.1556265 -0.05254084 -0.03128935
-0.0050616655 0.066623196 0.03676916 -0.0726036 0.055359956 0.030386211 0.099482305 -0.04352997
-0.039774004 0.11008476 0.05152623 -0.017311059 0.0012710432 -0.020252448 -0.056286074 -0.077313155
-0.038558703 -0.04906304 0.08923965 0.025625978 0.04355488 -0.033804324 -0.13299158 0.145662
-0.016159635 -0.065432824 0.020802302 -0.0713059 0.08718904 -0.025061274 0.05390622 -0.15430583
-0.046889886 -0.05237528 0.06510827 -0.033120435 -0.04088094 -0.033011332 -0.0008779594 0.011804506
-0.020237405 0.009995815 0.12397908 -0.034899306 -0.05600107 0.004434564 -0.067915544 -0.15013732
-0.054804295 -0.02641555 0.04898428 0.057125255 0.022597682 -0.023319775 0.0056920955 0.06843362
-0.08365319 0.015935186 -0.0120264245 -0.010018696 -0.044347648 -0.055034883 -0.05105489 -0.113194674
0.037212722 -0.018961301 -0.04637819 0.029378543 -0.07088026 0.025527172 -0.0053551793 0.13228205
0.03638927 -0.06295552 0.091691904 0.09488241 -0.05518036 0.08047045 -0.032667544 -0.23342447
-0.17498203 0.02221327 -0.024625015 -0.08857465 -0.18464157 0.07091065 -0.010616561 0.073935114
0.18705194 0.06517242 0.098786324 -0.07950002 0.19617204 0.2172443 0.015431569 -0.113949284
-0.016977737 -0.028362175 0.070898816 -0.059691146 0.08751071 0.21190332 -0.034865916 -0.029458404
0.032671787 0.058890812 -0.021172933 0.02254825 -0.0785951 0.0097174505 0.03399817 0.07375348
0.090605676 -0.15878357 0.07152193 -0.041225318 -0.14977625 0.09341235 -0.012780443 -0.25155932
-0.076502115 -0.03703434 -0.08831124 -0.047883496 0.0552643 -0.051397234 0.13878827 -0.053879768
-0.008786516 0.095176704 0.107786134 0.019393686 -0.006834182 -0.023978738 -0.10775713 0.067087755
0.021121934 0.20265295 -0.17399588 0.05771526 -0.01183238 -0.16271126 -0.032325394 0.16624965
00000000: 413f 333d e6f5 693d 9383 9cbd b7a5 edbd
00000010: e53e fa3c f9d2 89bd 6ef1 9ebd 25b9 95ba
00000020: 859d 7ebc 8047 8b3d bb5d 4dbc 3cd8 02bd
00000030: 0add fd3d 913d 58bd 7b1e 05bb 9e09 f2bd
00000040: f0da b3bd 2794 693d 3e5b 68bd 0262 c2bd
00000050: 7515 c5bc 7647 e8bb 8079 c23d 16de a6bc
00000060: d46c 0b3e 7c97 88bd 6738 d2bc cbe1 cc3d
00000070: d2b6 4ebd e57b 7dbd b338 c13d 0d26 93bd
00000080: 4a3b 3a3d 3804 aebc 19a4 9b3d ae06 4c3c
00000090: ee37 34bd 3341 85bd 8de9 f83d ce29 d3bd
000000a0: 630d a03d 7a5c 39bd 9dd0 0a3d 5d00 ab3b
000000b0: c0c3 9c3c 6a7d 643d da90 913d 18be 233e
000000c0: 979f 013d f93d 103d 5195 88bd 7a05 79bd
000000d0: f482 703d 8c3c be3c 4fe1 8c3d 823b cfbc
000000e0: aed6 803d ab69 ffbb 6faa 533d 655d 97bc
000000f0: 1630 68bd ac56 f83d 76fb 04bd bccd 68bd
00000100: 7283 bebd a859 11bd 31b9 9b3c faff 083e
00000110: c593 acbc 9261 3f3d 4096 66bd 312d 043d
00000120: fd23 21bd 7c5a adbc d0fb 2b3d 3bc1 7b3d
00000130: ff71 983c fcbe 113c eec3 03bc e965 8abd
00000140: 7d65 123d 34b2 d03b 312b 833d f0e6 2fbd
00000150: 0430 493d b4a8 b6bc 91fc 703d 1551 2abd
00000160: 6c62 883d dddb 40bd 2236 f63d 4dbf 423d
00000170: 5956 b03d c974 593d 8384 61bc 4136 33bc
00000180: e695 1ebc 8a0b 63bd 02d2 c43d dc99 5bbd
00000190: fb86 70bd 4165 bc3d 0aae 483d 3217 3cbd
000001a0: a2c3 4dbd c067 13bd 789c 9fbd 20e8 6e3b
000001b0: f84b 1abd 8e5c 1fbe 1035 57bd 4329 00bd
000001c0: 54dc a5bb be71 883d 429b 163d 32b1 94bd
000001d0: 1fc1 623d 81ec f83c 61bd cb3d 7b4c 32bd
000001e0: 11ea 22bd 1e74 e13d 2b0d 533d eccf 8dbc
000001f0: 2299 a63a 76e8 a5bc 3a8c 66bd 5c56 9ebd
00000200: bbef 1dbd 54f6 48bd 47c3 b63d 92ed d13c
00000210: 9a66 323d 6776 0abd f22e 08be 6b28 153e
00000220: 3661 84bc a501 86bd 9769 aa3c d408 92bd
00000230: 2b90 b23d 4d4d cdbc c5cc 5c3d 5902 1ebe
00000240: 9c0f 40bd 7687 56bd 7c57 853d 4ba9 07bd
00000250: c672 27bd e436 07bd dc26 66ba b067 413c
00000260: eac8 a5bc 7dc5 233c bee8 fd3d 93f2 0ebd
00000270: 6161 65bd d24f 913b 4e17 8bbd 99bd 19be
00000280: 787a 60bd 6c65 d8bc bea3 483d 2cfc 693d
00000290: c61e b93c 1d09 bfbc c284 ba3b ed26 8c3d
000002a0: 5d52 abbd 828a 823c 7b0a 45bc 7525 24bc
000002b0: e1a5 35bd 426c 61bd ef1e 51bd 9cd2 e7bd
000002c0: 5e6c 183d bb54 9bbc 0ff7 3dbd 45ab f03c
000002d0: ab29 91bd 5c1e d13c 807a afbb f274 073e
000002e0: ea0c 153d d3ee 80bd f7c8 bb3d b551 c23d
000002f0: cd04 62bd b1cd a43d 67ce 05bd d306 6fbe
00000300: 7d2e 33be 9bf8 b53c 66ba c9bc a066 b5bd
00000310: ae12 3dbe 9a39 913d 16f1 2dbc 4b6b 973d
00000320: 8b8a 3f3e 1e79 853d 7c50 ca3d e8d0 a2bd
00000330: 53e1 483e 4a75 5e3e b1d4 7c3c 3e5e e9bd
00000340: e514 8bbc cb57 e8bc 6633 913d b47e 74bd
00000350: d138 b33d 2ffd 583e 90cf 0ebd c052 f1bc
00000360: dad2 053d 7e37 713d dc72 adbc 1cb7 b83c
00000370: 78f6 a0bd f135 1f3c aa41 0b3d 110c 973d
00000380: 788f b93d 2998 22be 177a 923d e1db 28bd
00000390: f25e 19be f94e bf3d 1065 51bc 62cc 80be
000003a0: 24ad 9cbd 52b1 17bd 86dc b4bd 7c21 44bd
000003b0: d25c 623d e885 52bd 831e 0e3e 08b1 5cbd
000003c0: 52f5 0fbc 01ec c23d fabe dc3d 82df 9e3c
000003d0: 46f1 dfbb 0f6f c4bc c5af dcbd 4e65 893d
000003e0: e807 ad3c 4184 4f3e fa2b 32be d666 6c3d
000003f0: 99dc 41bc c89d 26be a267 04bd 593d 2a3e

fc2.bias f4 [128]
0.026266625 0.042193845 0.06118516 -0.040364984 -0.021475397 -0.10830378 -0.043136787 -0.10982972
0.002908538 0.037689537 0.0517603 -0.030498121 -0.08959344 -0.06813917 0.008328721 0.030470075
0.070777126 -0.0017919714 0.042768206 -0.03477607 -0.027355827 -0.069096155 -0.04501704 0.012507708
0.13607232 0.14855768 -0.04635313 0.07416874 -0.04521011 0.029873542 0.02672974 0.010253323
0.073157005 -0.008426093 0.04921889 -0.066862226 -0.07173357 -0.04519651 -0.04383842 -0.07862342
-0.0858949 -0.010993295 0.045664802 -0.021844447 -0.0059979735 0.0007697103 -0.069922574 0.020305386
-0.010250958 0.08803089 -0.04403159 -0.09353053 0.054061357 -0.07088545 0.05497689 -0.010483258
0.032133278 0.0008074317 0.062296744 -0.010845129 0.11680679 0.09530389 0.029555066 0.12282516
-0.055649824 0.034776118 -0.045134168 -0.068534255 0.083043545 0.063634925 0.01776439 -0.08044576
0.0490238 -0.07514841 -0.021415561 -0.0029476373 0.043507606 -0.04441376 -0.062544115 -0.10408988
0.041150827 -0.05636785 0.027950473 0.027235286 0.06359815 -0.014064628 -0.09607612 -0.006018714
-0.0011813905 0.05811206 -0.06639231 -0.057487737 -0.1111536 -0.022453718 0.008862181 0.002087151
-0.09205848 -0.050600193 0.021429313 -0.040157754 -0.054575484 -0.022492709 0.013977234 -0.09012758
-0.0336684 -0.08666695 -0.106142744 -0.057072036 0.061766192 -0.08864734 -0.05673258 0.031696193
0.047025926 -0.11854068 0.027536558 -0.007611895 0.0039496217 -0.08874833 -0.13817166 -0.017816797
-0.09061312 -0.036051936 0.034641754 -0.061840717 -0.056787115 0.034841586 0.028847033 -0.13395189
00000000: 1b2d d73c 74d3 2c3d 4a9d 7a3d c155 25bd
00000010: 2ced afbc 5fce ddbd 33b0 30bd 67ee e0bd
00000020: 2c9d 3e3b 5860 1a3d 9c02 543d 32d7 f9bc
00000030: c47c b7bd 8d8c 8bbd 3075 083c 619c f93c
00000040: 99f3 903d 95e0 eaba b72d 2f3d 5a71 0ebd
00000050: 5419 e0bc 4982 8dbd ca63 38bd 21ed 4c3c
00000060: 8b56 0b3e 811f 183e c8dc 3dbd c8e5 973d
00000070: 3c2e 39bd 5cb9 f43c 54f8 da3c 8efd 273c
00000080: 57d3 953d 980d 0abc bf99 493d 10ef 88bd
00000090: 0de9 92bd fa1f 39bd ea8f 33bd 5105 a1bd
000000a0: aae9 afbd 391d 34bc 040b 3b3d 20f3 b2bc
000000b0: a68a c4bb 62c6 493a 9133 8fbd 7b57 a63c
000000c0: a2f3 27bc 8a49 b43d 785a 34bd ef8c bfbd
000000d0: 716f 5d3d 642c 91bd 732f 613d f9c1 2bbc
000000e0: 2f9e 033d d3a9 533a df2a 7f3d c5af 31bc
000000f0: 6638 ef3d b02e c33d 771d f23c c28b fb3d
00000100: 12f1 63bd 6771 0e3d 9bde 38bd b05b 8cbd
00000110: bc12 aa3d 0753 823d a086 913c bfc0 a4bd
00000120: 2ecd 483d 69e7 99bd b06f afbc 262d 41bb
00000130: 0835 323d 34eb 35bd 2117 80bd 132d d5bd
00000140: c58d 283d fae1 66bd 64f8 e43c 891c df3c
00000150: bf3f 823d 536f 66bc 8fc3 c4bd a238 c5bb
00000160: e3d8 9aba e906 6e3d b1f8 87bd 4378 6bbd
00000170: 80a4 e3bd dcf0 b7bc ae32 113c 95c8 083b
00000180: 2889 bcbd 2642 4fbd 878c af3c 757c 24bd
00000190: 8b8a 5fbd a142 b8bc c500 653c cf94 b8bd
000001a0: e0e7 09bd 717e b1bd 5e61 d9bd 5ec4 69bd
000001b0: 8cfe 7c3d bd8c b5bd 6c60 68bd ded3 013d
000001c0: 429e 403d 75c5 f2bd 5994 e13c 346d f9bb
000001d0: d46b 813b afc1 b5bd df7c 0dbe 88f4 91bc
000001e0: 5f93 b9bd 32ab 13bd 83e4 0d3d b14c 7dbd
000001f0: 9b99 68bd 0db6 0e3d 9d50 ec3c af2a 09be

fc3.weight f4 [64, 128]
-0.09767216 -0.05604552 0.012718889 -0.051621407 0.06334875 0.01944296 0.008591298 -0.044806376
0.06642201 0.043087345 0.057286542 -0.07305225 -0.026475005 0.0025644214 0.0034585025 0.015041195
0.021040749 -0.037948307 -0.060853355 0.017097078 0.012315481 -0.02070149 -0.025542907 -0.054253545
-0.13583003 -0.032733943 0.08554684 -0.20317663 -0.06395642 -0.043446597 -0.016016498 -0.07138991
-0.06755661 0.060087837 0.01176122 0.01256795 0.0061816648 0.06804886 0.005151849 -0.07392463
0.07233124 -0.076560475 -0.022669293 -0.04222931 -0.02237668 -0.08412744 -0.06970984 0.07070321
-0.075798415 0.1537784 0.04812656 -0.087789275 -0.022464665 0.04366404 0.1592874 -0.0048665777
-0.033206735 0.07280359 0.03443917 0.019325722 -0.028015886 0.050161336 0.01347394 -0.10833613
0.009549286 0.054406308 -0.046360373 0.00055848365 0.2076618 0.15324116 0.060392343 -0.026502747
0.008910313 -0.060271822 0.037052322 0.038481977 0.1318465 0.0858118 -0.06642963 0.06588449
-0.03699074 0.022411043 0.017598629 -0.03392657 -0.0453102 0.08901061 -0.023478331 -0.119452626
-0.06449633 -0.051491138 0.045692317 -0.051875826 0.040374875 0.05740248 0.18941678 0.0052228416
0.07044331 -0.0032244863 0.05397531 -0.050641038 0.026561365 0.08489833 0.07693605 0.063851885
-0.020682544 0.052285425 0.03280081 -0.088498384 0.0016099811 -0.1066373 0.06568398 -0.08250779
0.012565077 -0.12236996 -0.016002601 -0.017168684 0.016160546 -0.054642715 0.07682475 -0.056154944
0.08708293 0.077724904 -0.1110622 -0.015349853 0.10132232 0.1118843 -0.02753153 0.03883413
0.015976626 0.10127648 0.027362384 -0.08457038 -0.06293203 -0.025179463 -0.002475248 -0.12158139
-0.11510316 0.079716206 -0.053655833 0.04920105 -0.16923636 -0.10774645 -0.026574288 -0.02625158
0.038926944 -0.04688876 -0.12872297 -0.074147105 0.04981014 0.0016307458 -0.065138 -0.018262904
-0.087713644 0.1390097 -0.08430913 0.03128592 0.002124697 0.09936162 -0.069070034 -0.028090093
0.03586403 0.07502743 0.028595574 -0.003945481 0.085162185 0.045764226 0.03864479 0.034380965
-0.015816083 0.08732422 -0.03829784 -0.082799695 0.055402257 -0.04822602 -0.016859546 0.02442645
-0.057750892 -0.05822274 -0.060814247 0.02352739 -0.004868617 0.06406622 -0.04309062 0.032685734
-0.041632496 -0.12282498 0.02235511 0.13754667 0.058551323 -0.022809435 -0.08492921 0.023279054
-0.064860076 -0.053947564 -0.028748749 -0.0062643206 -0.13479246 0.06559641 0.0462937 0.043769266
-0.015678678 -0.082349494 0.047676854 0.053058613 0.035837416 0.04133082 -0.061959244 0.046736214
-0.043091137 -0.08705356 0.07404799 -0.041366775 -0.038000673 -0.09602097 0.04163325 -0.046157725
0.013844258 0.032299474 0.022018291 -0.039403908 0.028096057 0.0077226157 -0.025213692 -0.05482811
-0.033926137 0.031211637 -0.043694846 0.019893453 0.074244626 -0.039171897 0.06620591 -0.13532571
-0.015645472 -0.05572239 -0.08215299 0.02004899 0.033011056 -0.020121638 -0.11115493 -0.015275829
-0.092104144 0.019894797 0.016813295 0.0185656 0.053955715 -0.053270318 -0.0050764857 -0.07755769
0.020706248 0.0029185195 0.09001716 0.07410955 -0.050470915 -0.034728058 -0.009038377 -0.014557201
00000000: 5708 c8bd fd8f 65bd e362 503c f870 53bd
00000010: fdbc 813d d846 9f3c 84c2 0c3c e486 37bd
00000020: 4308 883d 5b7c 303d 4ba5 6a3d 6b9c 95bd
00000030: 1ce2 d8bc da0f 283b 0ba8 623b 586f 763c
00000040: a65d ac3c af6f 1bbd 5e41 79bd 2c0f 8c3c
00000050: dfc6 493c 2c96 a9bc 5c3f d1bc f738 5ebd
00000060: 0717 0bbe 0714 06bd 2f33 af3d 890d 50be
00000070: 95fb 82bd 0ff5 31bd 0835 83bc e034 92bd
00000080: 1f5b 8abd aa1e 763d 22b2 403c cee9 4d3c
00000090: 908f ca3b 335d 8b3d d7d0 a83b cc65 97bd
000000a0: 6722 943d bdcb 9cbd f4b4 b9bc a4f8 2cbd
000000b0: 4d4f b7bc 024b acbd 08c4 8ebd d8cc 903d
000000c0: 333c 9bbd 1678 1d3e 5b20 453d ddca b3bd
000000d0: d107 b8bc 10d9 323d 3c1c 233e d077 9fbb
000000e0: c903 08bd 0c1a 953d 1610 0d3d fa50 9e3c
000000f0: 9281 e5bc f975 4d3d cdc1 5c3c 55df ddbd
00000100: 9c74 1c3c 26d9 5e3d 60e4 3dbd 3467 123a
00000110: 4ba5 543e 40eb 1c3e f65d 773d 4a1c d9bc
00000120: 90fc 113c 96df 76bd 2dc4 173d 479f 1d3d
00000130: c502 073e 19be af3d 420c 88bd 73ee 863d
00000140: 9a83 17bd 5d97 b73c 002b 903c 96f6 0abd
00000150: 3097 39bd 324b b63d a155 c0bc 94a3 f4bd
00000160: a716 84bd 5fe8 52bd de27 3b3d bf7b 54bd
00000170: 2060 253d dd1e 6b3d 79f6 413e 5f24 ab3b
00000180: 9544 903d e751 53bb 3715 5d3d fa6c 4fbd
00000190: 3897 d93c 2ddf ad3d a690 9d3d c7c4 823d
000001a0: 706e a9bc 3e29 563d 245a 063d a43e b5bd
000001b0: 0006 d33a a864 dabd 5385 863d d8f9 a8bd
000001c0: c1dd 4d3c 1a9d fabd e317 83bc 57a5 8cbc
000001d0: 1f63 843c 0ad1 5fbd 4b56 9d3d ba02 66bd
000001e0: 8958 b23d 3c2e 9f3d 9474 e3bd f37d 7bbc
000001f0: 1482 cf3d 9923 e53d ce89 e1bc 8910 1f3d
00000200: 6ae1 823c 0b6a cf3d 1427 e03c 3c33 adbd
00000210: 82e2 80bd 2945 cebc c537 22bb aaff f8bd
00000220: 35bb ebbd 4042 a33d 38c6 5bbd 0a87 493d
00000230: 4c4c 2dbe 2caa dcbd 52b2 d9bc 8e0d d7bc
00000240: dc71 1f3d 6e0e 40bd f4cf 03be 70da 97bd
00000250: b805 4c3d c0be d53a 1267 85bd 169c 95bc
00000260: 36a3 b3bd 8f58 0e3e 44aa acbd aa25 003d
00000270: 803e 0b3b 1b7e cb3d 9774 8dbd 321d e6bc
00000280: 29e6 123d fba7 993d 4441 ea3c 1849 81bb
00000290: 8369 ae3d 4573 3b3d 004a 1e3d 0ed3 0c3d
000002a0: bb90 81bc 0ad7 b23d 32de 1cbd e392 a9bd
000002b0: 7aed 623d a688 45bd 081d 8abc fa19 c83c
000002c0: 338c 6cbd f87a 6ebd 5c18 79bd 83bc c03c
000002d0: eb88 9fbb 2635 833d ca7f 30bd 7ae1 053d
000002e0: d686 2abd aa8b fbbd 1022 b73c 09d9 0c3e
000002f0: 83d3 6f3d dada babc 5eef adbd b7b3 be3c
00000300: 5cd5 84bd 1ff8 5cbd 7f82 ebbc ee44 cdbb
00000310: 0907 0abe 6957 863d 769e 3d3d 6747 333d
00000320: 9270 80bc daa6 a8bd ce48 433d fd53 593d
00000330: 41ca 123d 824a 293d fac8 7dbd 796e 3f3d
00000340: 5580 30bd 2349 b2bd 79a6 973d 3570 29bd
00000350: 98a6 1bbd a4a6 c4bd a087 2a3d e20f 3dbd
00000360: 07d3 623c 744c 043d b45f b43c fe65 21bd
00000370: b429 e63c ff0d fd3b f28c cebc 7193 60bd
00000380: 22f6 0abd 8caf ff3c 5ef9 32bd 98f7 a23c
00000390: 910d 983d b672 20bd f796 873d d392 0abe
000003a0: ef2a 80bc 293d 64bd d43f a8bd c83d a43c
000003b0: 9a36 073d 22d6 a4bc 32a5 e3bd 7847 7abc
000003c0: 19a1 bcbd 6afa a23c 09bc 893c e316 983c
000003d0: ab00 5d3d fa31 5abd a658 a6bb 91d6 9ebd
000003e0: 26a0 a93c a244 3f3b eb5a b83d bfc6 973d
000003f0: 97ba 4ebd 023f 0ebd b315 14bc 5481 6ebc

fc3.bias f4 [64]
-0.052110158 0.09072147 -0.028890254 -0.116414584 -0.06600902 -0.046207827 0.04932341 -0.0757382
0.02634912 -0.06932981 0.02916793 0.0020031796 0.03958126 -0.011845349 -0.07948857 -0.056178793
0.037546605 -0.046502132 -0.09137927 -0.096688114 -0.108338505 0.08132537 0.010619851 0.03339439
-0.038134716 -0.124249026 0.01033785 -0.077551946 -0.019217199 0.047517058 -0.13531663 -0.05135425
0.026037486 0.037690543 -0.023095476 -0.06083468 -0.028119795 -0.011310613 -0.13160162 0.03810541
0.05546868 -0.018783607 -0.048341043 0.0024941342 -0.002067552 -0.087205835 -0.01600839 0.026953356
0.06247387 0.029981548 -0.002920038 0.06717627 -0.025033623 -0.05959359 0.010829303 0.037217855
-0.08738413 0.027546134 -0.059404697 0.02543203 0.047995634 0.04485107 0.053099263 -0.14164303
00000000: 7671 55bd 2ecc b93d 41ab ecbc c56a eebd
00000010: bd2f 87bd 6b44 3dbd 5807 4a3d a11c 9bbd
00000020: 1cda d73c cafc 8dbd 95f1 ee3c c747 033b
00000030: f61f 223d ff12 42bc e7ca a2bd bc1b 66bd
00000040: 78ca 193d 0579 3ebd 0e25 bbbd 6b04 c6bd
00000050: 94e0 ddbd ea8d a63d e2fe 2d3c 8ec8 083d
00000060: 2633 1cbd 4676 febd 1660 293c 8ed3 9ebd
00000070: 636d 9dbc 3fa1 423d 7190 0abe d658 52bd
00000080: 914c d53c 6661 1a3d b932 bdbc c92d 79bd
00000090: 7c5b e6bc 2650 39bc 93c2 06be 6b14 1c3d
000000a0: 2033 633d 14e0 99bc 4201 46bd a174 233b
000000b0: c47f 07bb f998 b2bd 0724 83bc 49cd dc3c
000000c0: 9ae4 7f3d dd9b f53c 1c5e 3fbb b693 893d
000000d0: 5013 cdbc 6918 74bd 646d 313c c071 183d
000000e0: 73f6 b2bd 6ea8 e13c 5752 73bd d556 d03c
000000f0: 1297 443d c1b5 373d 9d7e 593d df0a 11be

fc4.weight f4 [4, 64]
0.035365924 -0.11331903 0.033706404 -0.044038486 -0.036592208 0.07582336 -0.061630655 0.113192275
-0.013762 -0.16832699 -0.009115164 0.05312912 -0.1271353 0.041548967 -0.07273252 -0.03957348
-0.02049292 -0.16289157 -0.03211603 -0.09132524 -0.13192187 0.034864787 -0.048944205 -0.0010409965
-0.025546577 -0.062722564 0.009037205 0.0005598071 0.0118237855 -0.03392577 -0.14640349 -0.030617855
0.03694791 -0.049559187 -0.12765634 0.009091111 0.01771996 0.014037325 -0.2558604 -0.0018635232
0.10685314 -0.018006092 -0.14569516 -0.08068627 -0.10708946 -0.06277947 -0.052813046 -0.1201967
0.032880813 -0.28032494 0.14523108 -0.14993526 -0.056704815 -0.07752839 -0.07181818 -0.11107771
-0.12037414 0.07315837 0.0002678485 0.071751855 -0.15351278 -0.034653842 0.07535143 -0.0016535003
-0.06625393 0.032165524 -0.054477308 -0.08482077 0.044495836 -0.1383167 -0.082779944 0.012416536
-0.10971311 0.119815096 0.030668193 -0.09057468 0.077125 0.10320068 -0.0801526 0.034570355
-0.19984694 0.09792989 -0.04722571 -0.035343718 -0.1040435 0.08332312 0.012952738 0.040127687
-0.078576796 -0.095447995 -0.052690987 0.07044908 -0.06494949 -0.09132106 0.037704322 -0.05490623
0.079190604 0.07012122 -0.17950213 0.12343768 -0.06911916 0.06956929 -0.28212544 0.018876677
-0.016664336 -0.18097791 0.08871726 -0.029034687 -0.028373806 0.12652822 0.18039082 -0.048260562
0.042642053 -0.22752956 0.10078058 -0.1643808 -0.05211669 -0.06356488 0.01860887 -0.06316882
0.08431979 0.10578374 -0.042018846 -0.024171708 -0.17070588 -0.08213245 0.097008996 -0.014632837
0.18009797 -0.05294052 -0.10135855 -0.022873336 0.016304152 0.11087707 -0.03759584 -0.06052918
0.03937084 -0.063633114 0.034080878 0.047434323 0.21358342 -0.08625386 -0.035799794 -0.028109686
0.09231297 0.17103231 -0.0151032 -0.1157114 -0.08077519 -0.11035257 0.26502922 -0.057852194
0.019682951 -0.09066009 -0.09086497 -0.042461127 -0.04845887 -0.07552418 0.2571988 -0.115087196
-0.015521398 -0.10571976 0.100361705 0.07420783 -0.035015967 0.10614286 0.2154936 0.0006584071
-0.0393146 0.099770665 0.22238322 -0.19030157 -0.06777712 -0.114539266 -0.15868688 0.08817123
0.14514592 0.011444154 -0.07138404 0.10708495 -0.06631396 0.050158534 -0.11069823 0.048713148
0.17927647 -0.20982736 0.022987498 -0.09103573 0.17024073 0.11913028 0.22706248 -0.016183207
-0.23558472 0.09218098 0.07337313 0.040033247 -0.04099945 -0.0054816473 -0.10962817 -0.026098434
0.06055089 0.057214603 -0.07023933 -0.10928306 -0.24158977 -0.11181653 -0.02059605 -0.09326975
0.16103952 -0.27895132 0.07461117 -0.064533755 -0.0767542 0.03597697 -0.035633475 -0.05730425
0.01685555 -0.0672081 -0.09714537 -0.094442844 0.039555315 0.16345729 -0.10097622 0.0054228744
-0.053314876 -0.11502045 0.18769662 -0.08866587 -0.012055223 -0.012410839 -0.103948735 0.003759769
-0.0038269958 -0.12435556 -0.22632776 0.12651715 -0.07400045 -0.17326185 -0.006623634 -0.10149464
-0.11823423 -0.0085403975 0.22356543 0.12181217 -0.04980998 0.07903253 -0.09147047 -0.04013518
-0.29273787 0.14264648 0.21203099 -0.065517 -0.10436265 -0.2065054 -0.039946217 0.012148299
00000000: dcdb 103d cf13 e8bd ba0f 0a3d b361 34bd
00000010: b6e1 15bd 4749 9b3d 6d70 7cbd 5ad1 e73d
00000020: 037a 61bc e95d 2cbe c557 15bc ec9d 593d
00000030: c22f 02be 402f 2a3d caf4 94bd cd17 22bd
00000040: c5e0 a7bc 0ccd 26be 198c 03bd ba08 bbbd
00000050: 8716 07be 61ce 0e3d b879 48bd 0c72 88ba
00000060: 0e47 d1bc b074 80bd c910 143c 05c0 123a
00000070: 8db8 413c c0f5 0abd ccea 15be 4cd2 fabc
00000080: b156 173d 93fe 4abd 58b8 02be e2f2 143c
00000090: 7329 913c cffc 653c 2200 83be 7641 f4ba
000000a0: d2d5 da3d 8381 93bc 1d31 15be d83e a5bd
000000b0: b851 dbbd 8692 80bd 7e52 58bd b029 f6bd
000000c0: 08ae 063d c086 8fbe 75b7 143e a188 19be
000000d0: 4f43 68bd 34c7 9ebd 6915 93bd b67c e3bd
000000e0: b886 f6bd 0ed4 953d 046e 8c39 a3f2 923d
000000f0: 7432 1dbe 30f1 0dbd da51 9a3d 43ba d8ba
00000100: 24b0 87bd ffbf 033d 9923 5fbd 83b6 adbd
00000110: 4441 363d e5a2 0dbe 8888 a9bd ba6e 4b3c
00000120: 44b1 e0bd 9e61 f53d dd3b fb3c 387f b9bd
00000130: b6f3 9d3d e15a d33d 0c27 a4bd a599 0d3d
00000140: ada4 4cbe 778f c83d bf6f 41bd 93c4 10bd
00000150: c214 d5bd 50a5 aa3d b937 543c ee5c 243d
00000160: dfec a0bd 3d7a c3bd 81d2 57bd 9b47 903d
00000170: 3d04 85bd 8906 bbbd d96f 1a3d 5be5 60bd
00000180: af2e a23d b79b 8f3d 68cf 37be e5cc fc3d
00000190: 598e 8dbd 587a 8e3d bf72 90be 43a3 9a3c
000001a0: a583 88bc 4652 39be 65b1 b53d 27da edbc
000001b0: 2f70 e8bc 9d90 013e 5fb8 383e deac 45bd
000001c0: 6fa9 2e3d 82fd 68be 0c66 ce3d 7153 28be
000001d0: 4f78 55bd 4e2e 82bd a171 983c a85e 81bd
000001e0: dbaf ac3d 25a5 d83d f41b 2cbd bf03 c6bc
000001f0: 86cd 2ebe 0f35 a8bd a7ac c63d 91be 6fbc
00000200: 9a6b 383e 29d8 58bd 1295 cfbd dd60 bbbc
00000210: 4990 853c 8413 e33d 18fe 19bd 72ed 77bd
00000220: 5143 213d 1452 82bd 6498 0b3d 7e4a 423d
00000230: 9db5 5a3e dda5 b0bd cea2 12bd 4946 e6bc
00000240: 950e bd3d 1823 2f3e 6a73 77bc 19fa ecbd
00000250: 766d a5bd 8700 e2bd e9b1 873e 6cf6 6cbd
00000260: 243e a13c ffab b9bd 6a17 babd b8eb 2dbd
00000270: cf7c 46bd 6cac 9abd 90af 833e d6b2 ebbd
00000280: 764d 7ebc 9a83 d8bd 708a cd3d 46fa 973d
00000290: e76c 0fbd 6e61 d93d 5baa 5c3e f498 2c3a
000002a0: 5908 21bd 9054 cc3d 6db8 633e 6ade 42be
000002b0: bbce 8abd 9093 eabd d07e 22be 1e93 b43d
000002c0: 22a1 143e 4380 3b3c cc31 92bd 5b4f db3d
000002d0: 9dcf 87bd 0973 4d3d c1b5 e2bd 7087 473d
000002e0: 4094 373e fcdc 56be 4750 bc3c f170 babd
000002f0: 9653 2e3e 94fa f33d 1183 683e a592 84bc
00000300: 1f3d 71be 62c9 bc3d a744 963d e7f9 233d
00000310: 0aef 27bd 649f b3bb bc84 e0bd 62cc d5bc
00000320: 3604 783d dc59 6a3d a3d9 8fbd cccf dfbd
00000330: 4f63 77be 1100 e5bd 0cb9 a8bc 3604 bfbd
00000340: 8be7 243e b5d2 8ebe becd 983d 462a 84bd
00000350: 4e31 9dbd 965c 133d 68f4 11bd dcb7 6abd
00000360: a714 8a3c 66a4 89bd 27f4 c6bd 406b c1bd
00000370: c104 223d 5961 273e 9fcc cebd 5eb2 b13b
00000380: b360 5abd d78f ebbd 8b33 403e 7496 b5bd
00000390: 4583 45bc d556 4bbc 13e3 d4bd 7566 763b
000003a0: 56ce 7abb 21ae febd 77c2 67be b68d 013e
000003b0: 8c8d 97bd 8e6b 31be 120b d9bb 6cdc cfbd
000003c0: ca24 f2bd 06ed 0bbc 56ee 643e a978 f93d
000003d0: 8d05 4cbd cfdb a13d df54 bbbd c964 24bd
000003e0: bde1 95be eb11 123e a71e 593e c72d 86bd
000003f0: 16bc d5bd 2776 53be a59e 23bd a909 473c

fc4.bias f4 [4]
-0.048286952 -0.16664119 0.10902698 -0.06612318
00000000: 8ac8 45bd fda3 2abe 8a49 df3d 976b 87bd
